ModelDNN_FlexibleLayers(
  (fc_layers): ModuleList(
    (0): Linear(in_features=1920, out_features=2048, bias=True)
    (1): LayerNorm((2048,), eps=1e-05, elementwise_affine=True)
    (2): Linear(in_features=2048, out_features=512, bias=True)
    (3): LayerNorm((512,), eps=1e-05, elementwise_affine=True)
    (4): Linear(in_features=512, out_features=3, bias=True)
  )
  (dropout): Dropout(p=0, inplace=False)
)
ModelDNN_3layers(
  (fc1): Linear(in_features=1920, out_features=2048, bias=True)
  (fc2): Linear(in_features=2048, out_features=512, bias=True)
  (fc3): Linear(in_features=512, out_features=3, bias=True)
  (ln1): LayerNorm((2048,), eps=1e-05, elementwise_affine=True)
  (ln2): LayerNorm((512,), eps=1e-05, elementwise_affine=True)
  (dropout): Dropout(p=0, inplace=False)
)
ModelVGG(
  (cnn_layers): ModuleList(
    (0): Conv1d(30, 30, kernel_size=(3,), stride=(1,), padding=(1,), groups=30)
    (1): ReLU(inplace=True)
    (2): Conv1d(30, 30, kernel_size=(3,), stride=(1,), padding=(1,), groups=30)
    (3): ReLU(inplace=True)
    (4): Conv1d(30, 30, kernel_size=(3,), stride=(1,), padding=(1,), groups=30)
    (5): ReLU(inplace=True)
    (6): Conv1d(30, 30, kernel_size=(3,), stride=(1,), padding=(1,), groups=30)
    (7): ReLU(inplace=True)
  )
  (fc_layers): ModuleList(
    (0): Linear(in_features=1920, out_features=5248, bias=True)
    (1): LayerNorm((5248,), eps=1e-05, elementwise_affine=True)
    (2): Linear(in_features=5248, out_features=512, bias=True)
    (3): LayerNorm((512,), eps=1e-05, elementwise_affine=True)
    (4): Linear(in_features=512, out_features=3, bias=True)
  )
  (dropout): Dropout(p=0, inplace=False)
)
ModelDNN_5layers(
  (fc1): Linear(in_features=1920, out_features=1024, bias=True)
  (fc2): Linear(in_features=1024, out_features=512, bias=True)
  (fc3): Linear(in_features=512, out_features=256, bias=True)
  (fc4): Linear(in_features=256, out_features=128, bias=True)
  (fc5): Linear(in_features=128, out_features=3, bias=True)
  (ln1): LayerNorm((1024,), eps=1e-05, elementwise_affine=True)
  (ln2): LayerNorm((512,), eps=1e-05, elementwise_affine=True)
  (ln3): LayerNorm((256,), eps=1e-05, elementwise_affine=True)
  (ln4): LayerNorm((128,), eps=1e-05, elementwise_affine=True)
  (dropout): Dropout(p=0, inplace=False)
)
ModelAlexNet(
  (cnn_layers): ModuleList(
    (0): Conv1d(30, 30, kernel_size=(5,), stride=(1,), padding=(2,), groups=30)
    (1): ReLU(inplace=True)
    (2): Conv1d(30, 30, kernel_size=(5,), stride=(1,), padding=(2,), groups=30)
    (3): ReLU(inplace=True)
    (4): Conv1d(30, 30, kernel_size=(5,), stride=(1,), padding=(2,), groups=30)
    (5): ReLU(inplace=True)
  )
  (fc_layers): ModuleList(
    (0): Linear(in_features=1920, out_features=2048, bias=True)
    (1): LayerNorm((2048,), eps=1e-05, elementwise_affine=True)
    (2): Linear(in_features=2048, out_features=512, bias=True)
    (3): LayerNorm((512,), eps=1e-05, elementwise_affine=True)
    (4): Linear(in_features=512, out_features=3, bias=True)
  )
  (dropout): Dropout(p=0, inplace=False)
)
ModelLeNet(
  (cnn_layers): ModuleList(
    (0): Conv1d(30, 30, kernel_size=(5,), stride=(1,), padding=(2,), groups=30)
    (1): LayerNorm((30, 64), eps=1e-05, elementwise_affine=True)
    (2): Conv1d(30, 30, kernel_size=(5,), stride=(1,), padding=(2,), groups=30)
    (3): LayerNorm((30, 64), eps=1e-05, elementwise_affine=True)
    (4): Conv1d(30, 30, kernel_size=(5,), stride=(1,), padding=(2,), groups=30)
    (5): LayerNorm((30, 64), eps=1e-05, elementwise_affine=True)
  )
  (fc_layers): ModuleList(
    (0): Linear(in_features=1920, out_features=2048, bias=True)
    (1): LayerNorm((2048,), eps=1e-05, elementwise_affine=True)
    (2): Linear(in_features=2048, out_features=512, bias=True)
    (3): LayerNorm((512,), eps=1e-05, elementwise_affine=True)
    (4): Linear(in_features=512, out_features=3, bias=True)
  )
  (dropout): Dropout(p=0, inplace=False)
)
ModelCNN_LSTM(
  (conv1): Conv1d(30, 30, kernel_size=(3,), stride=(1,), padding=(1,), groups=30)
  (conv2): Conv1d(30, 30, kernel_size=(3,), stride=(1,), padding=(1,), groups=30)
  (convs): Sequential(
    (0): Conv1d(30, 30, kernel_size=(3,), stride=(1,), padding=(1,), groups=30)
    (1): LayerNorm((30, 64), eps=1e-05, elementwise_affine=True)
    (2): ReLU()
    (3): Conv1d(30, 30, kernel_size=(3,), stride=(1,), padding=(1,), groups=30)
    (4): LayerNorm((30, 64), eps=1e-05, elementwise_affine=True)
    (5): ReLU()
  )
  (lstm): LSTM(30, 30, batch_first=True)
  (fc1): Linear(in_features=1920, out_features=2048, bias=True)
  (fc2): Linear(in_features=2048, out_features=512, bias=True)
  (fc3): Linear(in_features=512, out_features=3, bias=True)
  (ln1): LayerNorm((2048,), eps=1e-05, elementwise_affine=True)
  (ln2): LayerNorm((512,), eps=1e-05, elementwise_affine=True)
  (dropout): Dropout(p=0, inplace=False)
)
ModelDNN_FlexibleLayers(
  (fc_layers): ModuleList(
    (0): Linear(in_features=1920, out_features=2048, bias=True)
    (1): LayerNorm((2048,), eps=1e-05, elementwise_affine=True)
    (2): Linear(in_features=2048, out_features=512, bias=True)
    (3): LayerNorm((512,), eps=1e-05, elementwise_affine=True)
    (4): Linear(in_features=512, out_features=3, bias=True)
  )
  (dropout): Dropout(p=0, inplace=False)
)
ModelDNN_3layers(
  (fc1): Linear(in_features=1920, out_features=2048, bias=True)
  (fc2): Linear(in_features=2048, out_features=512, bias=True)
  (fc3): Linear(in_features=512, out_features=3, bias=True)
  (ln1): LayerNorm((2048,), eps=1e-05, elementwise_affine=True)
  (ln2): LayerNorm((512,), eps=1e-05, elementwise_affine=True)
  (dropout): Dropout(p=0, inplace=False)
)
ModelDNN_FlexibleLayers(
  (fc_layers): ModuleList(
    (0): Linear(in_features=1920, out_features=2048, bias=True)
    (1): LayerNorm((2048,), eps=1e-05, elementwise_affine=True)
    (2): Linear(in_features=2048, out_features=512, bias=True)
    (3): LayerNorm((512,), eps=1e-05, elementwise_affine=True)
    (4): Linear(in_features=512, out_features=3, bias=True)
  )
  (dropout): Dropout(p=0, inplace=False)
)
ModelDNN_3layers(
  (fc1): Linear(in_features=1920, out_features=2048, bias=True)
  (fc2): Linear(in_features=2048, out_features=512, bias=True)
  (fc3): Linear(in_features=512, out_features=3, bias=True)
  (ln1): LayerNorm((2048,), eps=1e-05, elementwise_affine=True)
  (ln2): LayerNorm((512,), eps=1e-05, elementwise_affine=True)
  (dropout): Dropout(p=0, inplace=False)
)
ModelVGG(
  (cnn_layers): ModuleList(
    (0): Conv1d(30, 30, kernel_size=(3,), stride=(1,), padding=(1,), groups=30)
    (1): ReLU(inplace=True)
    (2): Conv1d(30, 30, kernel_size=(3,), stride=(1,), padding=(1,), groups=30)
    (3): ReLU(inplace=True)
    (4): Conv1d(30, 30, kernel_size=(3,), stride=(1,), padding=(1,), groups=30)
    (5): ReLU(inplace=True)
    (6): Conv1d(30, 30, kernel_size=(3,), stride=(1,), padding=(1,), groups=30)
    (7): ReLU(inplace=True)
  )
  (fc_layers): ModuleList(
    (0): Linear(in_features=1920, out_features=5248, bias=True)
    (1): LayerNorm((5248,), eps=1e-05, elementwise_affine=True)
    (2): Linear(in_features=5248, out_features=512, bias=True)
    (3): LayerNorm((512,), eps=1e-05, elementwise_affine=True)
    (4): Linear(in_features=512, out_features=3, bias=True)
  )
  (dropout): Dropout(p=0, inplace=False)
)
ModelDNN_5layers(
  (fc1): Linear(in_features=1920, out_features=1024, bias=True)
  (fc2): Linear(in_features=1024, out_features=512, bias=True)
  (fc3): Linear(in_features=512, out_features=256, bias=True)
  (fc4): Linear(in_features=256, out_features=128, bias=True)
  (fc5): Linear(in_features=128, out_features=3, bias=True)
  (ln1): LayerNorm((1024,), eps=1e-05, elementwise_affine=True)
  (ln2): LayerNorm((512,), eps=1e-05, elementwise_affine=True)
  (ln3): LayerNorm((256,), eps=1e-05, elementwise_affine=True)
  (ln4): LayerNorm((128,), eps=1e-05, elementwise_affine=True)
  (dropout): Dropout(p=0, inplace=False)
)
ModelAlexNet(
  (cnn_layers): ModuleList(
    (0): Conv1d(30, 30, kernel_size=(5,), stride=(1,), padding=(2,), groups=30)
    (1): ReLU(inplace=True)
    (2): Conv1d(30, 30, kernel_size=(5,), stride=(1,), padding=(2,), groups=30)
    (3): ReLU(inplace=True)
    (4): Conv1d(30, 30, kernel_size=(5,), stride=(1,), padding=(2,), groups=30)
    (5): ReLU(inplace=True)
  )
  (fc_layers): ModuleList(
    (0): Linear(in_features=1920, out_features=2048, bias=True)
    (1): LayerNorm((2048,), eps=1e-05, elementwise_affine=True)
    (2): Linear(in_features=2048, out_features=512, bias=True)
    (3): LayerNorm((512,), eps=1e-05, elementwise_affine=True)
    (4): Linear(in_features=512, out_features=3, bias=True)
  )
  (dropout): Dropout(p=0, inplace=False)
)
ModelCNN_LSTM(
  (conv1): Conv1d(30, 30, kernel_size=(3,), stride=(1,), padding=(1,), groups=30)
  (conv2): Conv1d(30, 30, kernel_size=(3,), stride=(1,), padding=(1,), groups=30)
  (convs): Sequential(
    (0): Conv1d(30, 30, kernel_size=(3,), stride=(1,), padding=(1,), groups=30)
    (1): LayerNorm((30, 64), eps=1e-05, elementwise_affine=True)
    (2): ReLU()
    (3): Conv1d(30, 30, kernel_size=(3,), stride=(1,), padding=(1,), groups=30)
    (4): LayerNorm((30, 64), eps=1e-05, elementwise_affine=True)
    (5): ReLU()
  )
  (lstm): LSTM(30, 30, batch_first=True)
  (fc1): Linear(in_features=1920, out_features=2048, bias=True)
  (fc2): Linear(in_features=2048, out_features=512, bias=True)
  (fc3): Linear(in_features=512, out_features=3, bias=True)
  (ln1): LayerNorm((2048,), eps=1e-05, elementwise_affine=True)
  (ln2): LayerNorm((512,), eps=1e-05, elementwise_affine=True)
  (dropout): Dropout(p=0, inplace=False)
)
ModelLeNet(
  (cnn_layers): ModuleList(
    (0): Conv1d(30, 30, kernel_size=(5,), stride=(1,), padding=(2,), groups=30)
    (1): LayerNorm((30, 64), eps=1e-05, elementwise_affine=True)
    (2): Conv1d(30, 30, kernel_size=(5,), stride=(1,), padding=(2,), groups=30)
    (3): LayerNorm((30, 64), eps=1e-05, elementwise_affine=True)
    (4): Conv1d(30, 30, kernel_size=(5,), stride=(1,), padding=(2,), groups=30)
    (5): LayerNorm((30, 64), eps=1e-05, elementwise_affine=True)
  )
  (fc_layers): ModuleList(
    (0): Linear(in_features=1920, out_features=2048, bias=True)
    (1): LayerNorm((2048,), eps=1e-05, elementwise_affine=True)
    (2): Linear(in_features=2048, out_features=512, bias=True)
    (3): LayerNorm((512,), eps=1e-05, elementwise_affine=True)
    (4): Linear(in_features=512, out_features=3, bias=True)
  )
  (dropout): Dropout(p=0, inplace=False)
)
ModelDNN_FlexibleLayers(
  (fc_layers): ModuleList(
    (0): Linear(in_features=1920, out_features=2048, bias=True)
    (1): LayerNorm((2048,), eps=1e-05, elementwise_affine=True)
    (2): Linear(in_features=2048, out_features=512, bias=True)
    (3): LayerNorm((512,), eps=1e-05, elementwise_affine=True)
    (4): Linear(in_features=512, out_features=3, bias=True)
  )
  (dropout): Dropout(p=0, inplace=False)
)
ModelDNN_3layers(
  (fc1): Linear(in_features=1920, out_features=2048, bias=True)
  (fc2): Linear(in_features=2048, out_features=512, bias=True)
  (fc3): Linear(in_features=512, out_features=3, bias=True)
  (ln1): LayerNorm((2048,), eps=1e-05, elementwise_affine=True)
  (ln2): LayerNorm((512,), eps=1e-05, elementwise_affine=True)
  (dropout): Dropout(p=0, inplace=False)
)
ModelDNN_FlexibleLayers(
  (fc_layers): ModuleList(
    (0): Linear(in_features=1920, out_features=2048, bias=True)
    (1): LayerNorm((2048,), eps=1e-05, elementwise_affine=True)
    (2): Linear(in_features=2048, out_features=512, bias=True)
    (3): LayerNorm((512,), eps=1e-05, elementwise_affine=True)
    (4): Linear(in_features=512, out_features=3, bias=True)
  )
  (dropout): Dropout(p=0, inplace=False)
)
ModelDNN_3layers(
  (fc1): Linear(in_features=1920, out_features=2048, bias=True)
  (fc2): Linear(in_features=2048, out_features=512, bias=True)
  (fc3): Linear(in_features=512, out_features=3, bias=True)
  (ln1): LayerNorm((2048,), eps=1e-05, elementwise_affine=True)
  (ln2): LayerNorm((512,), eps=1e-05, elementwise_affine=True)
  (dropout): Dropout(p=0, inplace=False)
)
ModelVGG(
  (cnn_layers): ModuleList(
    (0): Conv1d(30, 30, kernel_size=(3,), stride=(1,), padding=(1,), groups=30)
    (1): ReLU(inplace=True)
    (2): Conv1d(30, 30, kernel_size=(3,), stride=(1,), padding=(1,), groups=30)
    (3): ReLU(inplace=True)
    (4): Conv1d(30, 30, kernel_size=(3,), stride=(1,), padding=(1,), groups=30)
    (5): ReLU(inplace=True)
    (6): Conv1d(30, 30, kernel_size=(3,), stride=(1,), padding=(1,), groups=30)
    (7): ReLU(inplace=True)
  )
  (fc_layers): ModuleList(
    (0): Linear(in_features=1920, out_features=5248, bias=True)
    (1): LayerNorm((5248,), eps=1e-05, elementwise_affine=True)
    (2): Linear(in_features=5248, out_features=512, bias=True)
    (3): LayerNorm((512,), eps=1e-05, elementwise_affine=True)
    (4): Linear(in_features=512, out_features=3, bias=True)
  )
  (dropout): Dropout(p=0, inplace=False)
)
ModelDNN_5layers(
  (fc1): Linear(in_features=1920, out_features=1024, bias=True)
  (fc2): Linear(in_features=1024, out_features=512, bias=True)
  (fc3): Linear(in_features=512, out_features=256, bias=True)
  (fc4): Linear(in_features=256, out_features=128, bias=True)
  (fc5): Linear(in_features=128, out_features=3, bias=True)
  (ln1): LayerNorm((1024,), eps=1e-05, elementwise_affine=True)
  (ln2): LayerNorm((512,), eps=1e-05, elementwise_affine=True)
  (ln3): LayerNorm((256,), eps=1e-05, elementwise_affine=True)
  (ln4): LayerNorm((128,), eps=1e-05, elementwise_affine=True)
  (dropout): Dropout(p=0, inplace=False)
)
ModelAlexNet(
  (cnn_layers): ModuleList(
    (0): Conv1d(30, 30, kernel_size=(5,), stride=(1,), padding=(2,), groups=30)
    (1): ReLU(inplace=True)
    (2): Conv1d(30, 30, kernel_size=(5,), stride=(1,), padding=(2,), groups=30)
    (3): ReLU(inplace=True)
    (4): Conv1d(30, 30, kernel_size=(5,), stride=(1,), padding=(2,), groups=30)
    (5): ReLU(inplace=True)
  )
  (fc_layers): ModuleList(
    (0): Linear(in_features=1920, out_features=2048, bias=True)
    (1): LayerNorm((2048,), eps=1e-05, elementwise_affine=True)
    (2): Linear(in_features=2048, out_features=512, bias=True)
    (3): LayerNorm((512,), eps=1e-05, elementwise_affine=True)
    (4): Linear(in_features=512, out_features=3, bias=True)
  )
  (dropout): Dropout(p=0, inplace=False)
)
ModelCNN_LSTM(
  (conv1): Conv1d(30, 30, kernel_size=(3,), stride=(1,), padding=(1,), groups=30)
  (conv2): Conv1d(30, 30, kernel_size=(3,), stride=(1,), padding=(1,), groups=30)
  (convs): Sequential(
    (0): Conv1d(30, 30, kernel_size=(3,), stride=(1,), padding=(1,), groups=30)
    (1): LayerNorm((30, 64), eps=1e-05, elementwise_affine=True)
    (2): ReLU()
    (3): Conv1d(30, 30, kernel_size=(3,), stride=(1,), padding=(1,), groups=30)
    (4): LayerNorm((30, 64), eps=1e-05, elementwise_affine=True)
    (5): ReLU()
  )
  (lstm): LSTM(30, 30, batch_first=True)
  (fc1): Linear(in_features=1920, out_features=2048, bias=True)
  (fc2): Linear(in_features=2048, out_features=512, bias=True)
  (fc3): Linear(in_features=512, out_features=3, bias=True)
  (ln1): LayerNorm((2048,), eps=1e-05, elementwise_affine=True)
  (ln2): LayerNorm((512,), eps=1e-05, elementwise_affine=True)
  (dropout): Dropout(p=0, inplace=False)
)
ModelLeNet(
  (cnn_layers): ModuleList(
    (0): Conv1d(30, 30, kernel_size=(5,), stride=(1,), padding=(2,), groups=30)
    (1): LayerNorm((30, 64), eps=1e-05, elementwise_affine=True)
    (2): Conv1d(30, 30, kernel_size=(5,), stride=(1,), padding=(2,), groups=30)
    (3): LayerNorm((30, 64), eps=1e-05, elementwise_affine=True)
    (4): Conv1d(30, 30, kernel_size=(5,), stride=(1,), padding=(2,), groups=30)
    (5): LayerNorm((30, 64), eps=1e-05, elementwise_affine=True)
  )
  (fc_layers): ModuleList(
    (0): Linear(in_features=1920, out_features=2048, bias=True)
    (1): LayerNorm((2048,), eps=1e-05, elementwise_affine=True)
    (2): Linear(in_features=2048, out_features=512, bias=True)
    (3): LayerNorm((512,), eps=1e-05, elementwise_affine=True)
    (4): Linear(in_features=512, out_features=3, bias=True)
  )
  (dropout): Dropout(p=0, inplace=False)
)
ModelCNN_LSTM(
  (conv1): Conv1d(30, 30, kernel_size=(3,), stride=(1,), padding=(1,), groups=30)
  (conv2): Conv1d(30, 30, kernel_size=(3,), stride=(1,), padding=(1,), groups=30)
  (convs): Sequential(
    (0): Conv1d(30, 30, kernel_size=(3,), stride=(1,), padding=(1,), groups=30)
    (1): LayerNorm((30, 64), eps=1e-05, elementwise_affine=True)
    (2): ReLU()
    (3): Conv1d(30, 30, kernel_size=(3,), stride=(1,), padding=(1,), groups=30)
    (4): LayerNorm((30, 64), eps=1e-05, elementwise_affine=True)
    (5): ReLU()
  )
  (lstm): LSTM(30, 30, batch_first=True)
  (fc1): Linear(in_features=1920, out_features=2048, bias=True)
  (fc2): Linear(in_features=2048, out_features=512, bias=True)
  (fc3): Linear(in_features=512, out_features=3, bias=True)
  (ln1): LayerNorm((2048,), eps=1e-05, elementwise_affine=True)
  (ln2): LayerNorm((512,), eps=1e-05, elementwise_affine=True)
  (dropout): Dropout(p=0, inplace=False)
)
ModelLeNet(
  (cnn_layers): ModuleList(
    (0): Conv1d(30, 30, kernel_size=(5,), stride=(1,), padding=(2,), groups=30)
    (1): LayerNorm((30, 64), eps=1e-05, elementwise_affine=True)
    (2): Conv1d(30, 30, kernel_size=(5,), stride=(1,), padding=(2,), groups=30)
    (3): LayerNorm((30, 64), eps=1e-05, elementwise_affine=True)
    (4): Conv1d(30, 30, kernel_size=(5,), stride=(1,), padding=(2,), groups=30)
    (5): LayerNorm((30, 64), eps=1e-05, elementwise_affine=True)
  )
  (fc_layers): ModuleList(
    (0): Linear(in_features=1920, out_features=2048, bias=True)
    (1): LayerNorm((2048,), eps=1e-05, elementwise_affine=True)
    (2): Linear(in_features=2048, out_features=512, bias=True)
    (3): LayerNorm((512,), eps=1e-05, elementwise_affine=True)
    (4): Linear(in_features=512, out_features=3, bias=True)
  )
  (dropout): Dropout(p=0, inplace=False)
)
ModelVGG(
  (cnn_layers): ModuleList(
    (0): Conv1d(30, 30, kernel_size=(3,), stride=(1,), padding=(1,), groups=30)
    (1): ReLU(inplace=True)
    (2): Conv1d(30, 30, kernel_size=(3,), stride=(1,), padding=(1,), groups=30)
    (3): ReLU(inplace=True)
    (4): Conv1d(30, 30, kernel_size=(3,), stride=(1,), padding=(1,), groups=30)
    (5): ReLU(inplace=True)
    (6): Conv1d(30, 30, kernel_size=(3,), stride=(1,), padding=(1,), groups=30)
    (7): ReLU(inplace=True)
  )
  (fc_layers): ModuleList(
    (0): Linear(in_features=1920, out_features=5248, bias=True)
    (1): LayerNorm((5248,), eps=1e-05, elementwise_affine=True)
    (2): Linear(in_features=5248, out_features=512, bias=True)
    (3): LayerNorm((512,), eps=1e-05, elementwise_affine=True)
    (4): Linear(in_features=512, out_features=3, bias=True)
  )
  (dropout): Dropout(p=0, inplace=False)
)
ModelAlexNet(
  (cnn_layers): ModuleList(
    (0): Conv1d(30, 30, kernel_size=(5,), stride=(1,), padding=(2,), groups=30)
    (1): ReLU(inplace=True)
    (2): Conv1d(30, 30, kernel_size=(5,), stride=(1,), padding=(2,), groups=30)
    (3): ReLU(inplace=True)
    (4): Conv1d(30, 30, kernel_size=(5,), stride=(1,), padding=(2,), groups=30)
    (5): ReLU(inplace=True)
  )
  (fc_layers): ModuleList(
    (0): Linear(in_features=1920, out_features=2048, bias=True)
    (1): LayerNorm((2048,), eps=1e-05, elementwise_affine=True)
    (2): Linear(in_features=2048, out_features=512, bias=True)
    (3): LayerNorm((512,), eps=1e-05, elementwise_affine=True)
    (4): Linear(in_features=512, out_features=3, bias=True)
  )
  (dropout): Dropout(p=0, inplace=False)
)
ModelDNN_5layers(
  (fc1): Linear(in_features=1920, out_features=1024, bias=True)
  (fc2): Linear(in_features=1024, out_features=512, bias=True)
  (fc3): Linear(in_features=512, out_features=256, bias=True)
  (fc4): Linear(in_features=256, out_features=128, bias=True)
  (fc5): Linear(in_features=128, out_features=3, bias=True)
  (ln1): LayerNorm((1024,), eps=1e-05, elementwise_affine=True)
  (ln2): LayerNorm((512,), eps=1e-05, elementwise_affine=True)
  (ln3): LayerNorm((256,), eps=1e-05, elementwise_affine=True)
  (ln4): LayerNorm((128,), eps=1e-05, elementwise_affine=True)
  (dropout): Dropout(p=0, inplace=False)
)
ModelDNN_3layers(
  (fc1): Linear(in_features=1920, out_features=2048, bias=True)
  (fc2): Linear(in_features=2048, out_features=512, bias=True)
  (fc3): Linear(in_features=512, out_features=3, bias=True)
  (ln1): LayerNorm((2048,), eps=1e-05, elementwise_affine=True)
  (ln2): LayerNorm((512,), eps=1e-05, elementwise_affine=True)
  (dropout): Dropout(p=0, inplace=False)
)
ModelDNN_FlexibleLayers(
  (fc_layers): ModuleList(
    (0): Linear(in_features=1920, out_features=2048, bias=True)
    (1): LayerNorm((2048,), eps=1e-05, elementwise_affine=True)
    (2): Linear(in_features=2048, out_features=512, bias=True)
    (3): LayerNorm((512,), eps=1e-05, elementwise_affine=True)
    (4): Linear(in_features=512, out_features=3, bias=True)
  )
  (dropout): Dropout(p=0, inplace=False)
)
ModelCNN_LSTM(
  (conv1): Conv1d(30, 30, kernel_size=(3,), stride=(1,), padding=(1,), groups=30)
  (conv2): Conv1d(30, 30, kernel_size=(3,), stride=(1,), padding=(1,), groups=30)
  (convs): Sequential(
    (0): Conv1d(30, 30, kernel_size=(3,), stride=(1,), padding=(1,), groups=30)
    (1): LayerNorm((30, 64), eps=1e-05, elementwise_affine=True)
    (2): ReLU()
    (3): Conv1d(30, 30, kernel_size=(3,), stride=(1,), padding=(1,), groups=30)
    (4): LayerNorm((30, 64), eps=1e-05, elementwise_affine=True)
    (5): ReLU()
  )
  (lstm): LSTM(30, 30, batch_first=True)
  (fc1): Linear(in_features=1920, out_features=2048, bias=True)
  (fc2): Linear(in_features=2048, out_features=512, bias=True)
  (fc3): Linear(in_features=512, out_features=3, bias=True)
  (ln1): LayerNorm((2048,), eps=1e-05, elementwise_affine=True)
  (ln2): LayerNorm((512,), eps=1e-05, elementwise_affine=True)
  (dropout): Dropout(p=0, inplace=False)
)
ModelLeNet(
  (cnn_layers): ModuleList(
    (0): Conv1d(30, 30, kernel_size=(5,), stride=(1,), padding=(2,), groups=30)
    (1): LayerNorm((30, 64), eps=1e-05, elementwise_affine=True)
    (2): Conv1d(30, 30, kernel_size=(5,), stride=(1,), padding=(2,), groups=30)
    (3): LayerNorm((30, 64), eps=1e-05, elementwise_affine=True)
    (4): Conv1d(30, 30, kernel_size=(5,), stride=(1,), padding=(2,), groups=30)
    (5): LayerNorm((30, 64), eps=1e-05, elementwise_affine=True)
  )
  (fc_layers): ModuleList(
    (0): Linear(in_features=1920, out_features=2048, bias=True)
    (1): LayerNorm((2048,), eps=1e-05, elementwise_affine=True)
    (2): Linear(in_features=2048, out_features=512, bias=True)
    (3): LayerNorm((512,), eps=1e-05, elementwise_affine=True)
    (4): Linear(in_features=512, out_features=3, bias=True)
  )
  (dropout): Dropout(p=0, inplace=False)
)
ModelVGG(
  (cnn_layers): ModuleList(
    (0): Conv1d(30, 30, kernel_size=(3,), stride=(1,), padding=(1,), groups=30)
    (1): ReLU(inplace=True)
    (2): Conv1d(30, 30, kernel_size=(3,), stride=(1,), padding=(1,), groups=30)
    (3): ReLU(inplace=True)
    (4): Conv1d(30, 30, kernel_size=(3,), stride=(1,), padding=(1,), groups=30)
    (5): ReLU(inplace=True)
    (6): Conv1d(30, 30, kernel_size=(3,), stride=(1,), padding=(1,), groups=30)
    (7): ReLU(inplace=True)
  )
  (fc_layers): ModuleList(
    (0): Linear(in_features=1920, out_features=5248, bias=True)
    (1): LayerNorm((5248,), eps=1e-05, elementwise_affine=True)
    (2): Linear(in_features=5248, out_features=512, bias=True)
    (3): LayerNorm((512,), eps=1e-05, elementwise_affine=True)
    (4): Linear(in_features=512, out_features=3, bias=True)
  )
  (dropout): Dropout(p=0, inplace=False)
)
ModelAlexNet(
  (cnn_layers): ModuleList(
    (0): Conv1d(30, 30, kernel_size=(5,), stride=(1,), padding=(2,), groups=30)
    (1): ReLU(inplace=True)
    (2): Conv1d(30, 30, kernel_size=(5,), stride=(1,), padding=(2,), groups=30)
    (3): ReLU(inplace=True)
    (4): Conv1d(30, 30, kernel_size=(5,), stride=(1,), padding=(2,), groups=30)
    (5): ReLU(inplace=True)
  )
  (fc_layers): ModuleList(
    (0): Linear(in_features=1920, out_features=2048, bias=True)
    (1): LayerNorm((2048,), eps=1e-05, elementwise_affine=True)
    (2): Linear(in_features=2048, out_features=512, bias=True)
    (3): LayerNorm((512,), eps=1e-05, elementwise_affine=True)
    (4): Linear(in_features=512, out_features=3, bias=True)
  )
  (dropout): Dropout(p=0, inplace=False)
)
ModelDNN_5layers(
  (fc1): Linear(in_features=1920, out_features=1024, bias=True)
  (fc2): Linear(in_features=1024, out_features=512, bias=True)
  (fc3): Linear(in_features=512, out_features=256, bias=True)
  (fc4): Linear(in_features=256, out_features=128, bias=True)
  (fc5): Linear(in_features=128, out_features=3, bias=True)
  (ln1): LayerNorm((1024,), eps=1e-05, elementwise_affine=True)
  (ln2): LayerNorm((512,), eps=1e-05, elementwise_affine=True)
  (ln3): LayerNorm((256,), eps=1e-05, elementwise_affine=True)
  (ln4): LayerNorm((128,), eps=1e-05, elementwise_affine=True)
  (dropout): Dropout(p=0, inplace=False)
)
ModelDNN_3layers(
  (fc1): Linear(in_features=1920, out_features=2048, bias=True)
  (fc2): Linear(in_features=2048, out_features=512, bias=True)
  (fc3): Linear(in_features=512, out_features=3, bias=True)
  (ln1): LayerNorm((2048,), eps=1e-05, elementwise_affine=True)
  (ln2): LayerNorm((512,), eps=1e-05, elementwise_affine=True)
  (dropout): Dropout(p=0, inplace=False)
)
ModelDNN_FlexibleLayers(
  (fc_layers): ModuleList(
    (0): Linear(in_features=1920, out_features=2048, bias=True)
    (1): LayerNorm((2048,), eps=1e-05, elementwise_affine=True)
    (2): Linear(in_features=2048, out_features=512, bias=True)
    (3): LayerNorm((512,), eps=1e-05, elementwise_affine=True)
    (4): Linear(in_features=512, out_features=3, bias=True)
  )
  (dropout): Dropout(p=0, inplace=False)
)
ModelCNN_LSTM(
  (conv1): Conv1d(30, 30, kernel_size=(3,), stride=(1,), padding=(1,), groups=30)
  (conv2): Conv1d(30, 30, kernel_size=(3,), stride=(1,), padding=(1,), groups=30)
  (convs): Sequential(
    (0): Conv1d(30, 30, kernel_size=(3,), stride=(1,), padding=(1,), groups=30)
    (1): LayerNorm((30, 64), eps=1e-05, elementwise_affine=True)
    (2): ReLU()
    (3): Conv1d(30, 30, kernel_size=(3,), stride=(1,), padding=(1,), groups=30)
    (4): LayerNorm((30, 64), eps=1e-05, elementwise_affine=True)
    (5): ReLU()
  )
  (lstm): LSTM(30, 30, batch_first=True)
  (fc1): Linear(in_features=1920, out_features=2048, bias=True)
  (fc2): Linear(in_features=2048, out_features=512, bias=True)
  (fc3): Linear(in_features=512, out_features=3, bias=True)
  (ln1): LayerNorm((2048,), eps=1e-05, elementwise_affine=True)
  (ln2): LayerNorm((512,), eps=1e-05, elementwise_affine=True)
  (dropout): Dropout(p=0, inplace=False)
)
ModelLeNet(
  (cnn_layers): ModuleList(
    (0): Conv1d(30, 30, kernel_size=(5,), stride=(1,), padding=(2,), groups=30)
    (1): LayerNorm((30, 64), eps=1e-05, elementwise_affine=True)
    (2): Conv1d(30, 30, kernel_size=(5,), stride=(1,), padding=(2,), groups=30)
    (3): LayerNorm((30, 64), eps=1e-05, elementwise_affine=True)
    (4): Conv1d(30, 30, kernel_size=(5,), stride=(1,), padding=(2,), groups=30)
    (5): LayerNorm((30, 64), eps=1e-05, elementwise_affine=True)
  )
  (fc_layers): ModuleList(
    (0): Linear(in_features=1920, out_features=2048, bias=True)
    (1): LayerNorm((2048,), eps=1e-05, elementwise_affine=True)
    (2): Linear(in_features=2048, out_features=512, bias=True)
    (3): LayerNorm((512,), eps=1e-05, elementwise_affine=True)
    (4): Linear(in_features=512, out_features=3, bias=True)
  )
  (dropout): Dropout(p=0, inplace=False)
)
ModelVGG(
  (cnn_layers): ModuleList(
    (0): Conv1d(30, 30, kernel_size=(3,), stride=(1,), padding=(1,), groups=30)
    (1): ReLU(inplace=True)
    (2): Conv1d(30, 30, kernel_size=(3,), stride=(1,), padding=(1,), groups=30)
    (3): ReLU(inplace=True)
    (4): Conv1d(30, 30, kernel_size=(3,), stride=(1,), padding=(1,), groups=30)
    (5): ReLU(inplace=True)
    (6): Conv1d(30, 30, kernel_size=(3,), stride=(1,), padding=(1,), groups=30)
    (7): ReLU(inplace=True)
  )
  (fc_layers): ModuleList(
    (0): Linear(in_features=1920, out_features=5248, bias=True)
    (1): LayerNorm((5248,), eps=1e-05, elementwise_affine=True)
    (2): Linear(in_features=5248, out_features=512, bias=True)
    (3): LayerNorm((512,), eps=1e-05, elementwise_affine=True)
    (4): Linear(in_features=512, out_features=3, bias=True)
  )
  (dropout): Dropout(p=0, inplace=False)
)
ModelAlexNet(
  (cnn_layers): ModuleList(
    (0): Conv1d(30, 30, kernel_size=(5,), stride=(1,), padding=(2,), groups=30)
    (1): ReLU(inplace=True)
    (2): Conv1d(30, 30, kernel_size=(5,), stride=(1,), padding=(2,), groups=30)
    (3): ReLU(inplace=True)
    (4): Conv1d(30, 30, kernel_size=(5,), stride=(1,), padding=(2,), groups=30)
    (5): ReLU(inplace=True)
  )
  (fc_layers): ModuleList(
    (0): Linear(in_features=1920, out_features=2048, bias=True)
    (1): LayerNorm((2048,), eps=1e-05, elementwise_affine=True)
    (2): Linear(in_features=2048, out_features=512, bias=True)
    (3): LayerNorm((512,), eps=1e-05, elementwise_affine=True)
    (4): Linear(in_features=512, out_features=3, bias=True)
  )
  (dropout): Dropout(p=0, inplace=False)
)
ModelDNN_5layers(
  (fc1): Linear(in_features=1920, out_features=1024, bias=True)
  (fc2): Linear(in_features=1024, out_features=512, bias=True)
  (fc3): Linear(in_features=512, out_features=256, bias=True)
  (fc4): Linear(in_features=256, out_features=128, bias=True)
  (fc5): Linear(in_features=128, out_features=3, bias=True)
  (ln1): LayerNorm((1024,), eps=1e-05, elementwise_affine=True)
  (ln2): LayerNorm((512,), eps=1e-05, elementwise_affine=True)
  (ln3): LayerNorm((256,), eps=1e-05, elementwise_affine=True)
  (ln4): LayerNorm((128,), eps=1e-05, elementwise_affine=True)
  (dropout): Dropout(p=0, inplace=False)
)
ModelDNN_3layers(
  (fc1): Linear(in_features=1920, out_features=2048, bias=True)
  (fc2): Linear(in_features=2048, out_features=512, bias=True)
  (fc3): Linear(in_features=512, out_features=3, bias=True)
  (ln1): LayerNorm((2048,), eps=1e-05, elementwise_affine=True)
  (ln2): LayerNorm((512,), eps=1e-05, elementwise_affine=True)
  (dropout): Dropout(p=0, inplace=False)
)
ModelDNN_FlexibleLayers(
  (fc_layers): ModuleList(
    (0): Linear(in_features=1920, out_features=2048, bias=True)
    (1): LayerNorm((2048,), eps=1e-05, elementwise_affine=True)
    (2): Linear(in_features=2048, out_features=512, bias=True)
    (3): LayerNorm((512,), eps=1e-05, elementwise_affine=True)
    (4): Linear(in_features=512, out_features=3, bias=True)
  )
  (dropout): Dropout(p=0, inplace=False)
)
ModelDNN_FlexibleLayers(
  (fc_layers): ModuleList(
    (0): Linear(in_features=1920, out_features=2048, bias=True)
    (1): LayerNorm((2048,), eps=1e-05, elementwise_affine=True)
    (2): Linear(in_features=2048, out_features=512, bias=True)
    (3): LayerNorm((512,), eps=1e-05, elementwise_affine=True)
    (4): Linear(in_features=512, out_features=3, bias=True)
  )
  (dropout): Dropout(p=0, inplace=False)
)
ModelDNN_FlexibleLayers(
  (fc_layers): ModuleList(
    (0): Linear(in_features=1920, out_features=2048, bias=True)
    (1): LayerNorm((2048,), eps=1e-05, elementwise_affine=True)
    (2): Linear(in_features=2048, out_features=512, bias=True)
    (3): LayerNorm((512,), eps=1e-05, elementwise_affine=True)
    (4): Linear(in_features=512, out_features=3, bias=True)
  )
  (dropout): Dropout(p=0, inplace=False)
)
ModelDNN_FlexibleLayers(
  (fc_layers): ModuleList(
    (0): Linear(in_features=1920, out_features=2048, bias=True)
    (1): LayerNorm((2048,), eps=1e-05, elementwise_affine=True)
    (2): Linear(in_features=2048, out_features=512, bias=True)
    (3): LayerNorm((512,), eps=1e-05, elementwise_affine=True)
    (4): Linear(in_features=512, out_features=3, bias=True)
  )
  (dropout): Dropout(p=0, inplace=False)
)
ModelDNN_FlexibleLayers(
  (fc_layers): ModuleList(
    (0): Linear(in_features=1920, out_features=2048, bias=True)
    (1): LayerNorm((2048,), eps=1e-05, elementwise_affine=True)
    (2): Linear(in_features=2048, out_features=512, bias=True)
    (3): LayerNorm((512,), eps=1e-05, elementwise_affine=True)
    (4): Linear(in_features=512, out_features=3, bias=True)
  )
  (dropout): Dropout(p=0, inplace=False)
)
ModelDNN_FlexibleLayers(
  (fc_layers): ModuleList(
    (0): Linear(in_features=1920, out_features=2048, bias=True)
    (1): LayerNorm((2048,), eps=1e-05, elementwise_affine=True)
    (2): Linear(in_features=2048, out_features=512, bias=True)
    (3): LayerNorm((512,), eps=1e-05, elementwise_affine=True)
    (4): Linear(in_features=512, out_features=3, bias=True)
  )
  (dropout): Dropout(p=0, inplace=False)
)
ModelDNN_FlexibleLayers(
  (fc_layers): ModuleList(
    (0): Linear(in_features=1920, out_features=2048, bias=True)
    (1): LayerNorm((2048,), eps=1e-05, elementwise_affine=True)
    (2): Linear(in_features=2048, out_features=512, bias=True)
    (3): LayerNorm((512,), eps=1e-05, elementwise_affine=True)
    (4): Linear(in_features=512, out_features=3, bias=True)
  )
  (dropout): Dropout(p=0, inplace=False)
)
ModelDNN_FlexibleLayers(
  (fc_layers): ModuleList(
    (0): Linear(in_features=1920, out_features=2048, bias=True)
    (1): LayerNorm((2048,), eps=1e-05, elementwise_affine=True)
    (2): Linear(in_features=2048, out_features=512, bias=True)
    (3): LayerNorm((512,), eps=1e-05, elementwise_affine=True)
    (4): Linear(in_features=512, out_features=3, bias=True)
  )
  (dropout): Dropout(p=0, inplace=False)
)
ModelDNN_FlexibleLayers(
  (fc_layers): ModuleList(
    (0): Linear(in_features=1920, out_features=2048, bias=True)
    (1): LayerNorm((2048,), eps=1e-05, elementwise_affine=True)
    (2): Linear(in_features=2048, out_features=512, bias=True)
    (3): LayerNorm((512,), eps=1e-05, elementwise_affine=True)
    (4): Linear(in_features=512, out_features=3, bias=True)
  )
  (dropout): Dropout(p=0, inplace=False)
)
ModelDNN_FlexibleLayers(
  (fc_layers): ModuleList(
    (0): Linear(in_features=1920, out_features=2048, bias=True)
    (1): LayerNorm((2048,), eps=1e-05, elementwise_affine=True)
    (2): Linear(in_features=2048, out_features=512, bias=True)
    (3): LayerNorm((512,), eps=1e-05, elementwise_affine=True)
    (4): Linear(in_features=512, out_features=3, bias=True)
  )
  (dropout): Dropout(p=0, inplace=False)
)
ModelDNN_5layers(
  (fc1): Linear(in_features=1920, out_features=1024, bias=True)
  (fc2): Linear(in_features=1024, out_features=512, bias=True)
  (fc3): Linear(in_features=512, out_features=256, bias=True)
  (fc4): Linear(in_features=256, out_features=128, bias=True)
  (fc5): Linear(in_features=128, out_features=3, bias=True)
  (ln1): LayerNorm((1024,), eps=1e-05, elementwise_affine=True)
  (ln2): LayerNorm((512,), eps=1e-05, elementwise_affine=True)
  (ln3): LayerNorm((256,), eps=1e-05, elementwise_affine=True)
  (ln4): LayerNorm((128,), eps=1e-05, elementwise_affine=True)
  (dropout): Dropout(p=0, inplace=False)
)
ModelDNN_5layers(
  (fc1): Linear(in_features=1920, out_features=1024, bias=True)
  (fc2): Linear(in_features=1024, out_features=512, bias=True)
  (fc3): Linear(in_features=512, out_features=256, bias=True)
  (fc4): Linear(in_features=256, out_features=128, bias=True)
  (fc5): Linear(in_features=128, out_features=3, bias=True)
  (ln1): LayerNorm((1024,), eps=1e-05, elementwise_affine=True)
  (ln2): LayerNorm((512,), eps=1e-05, elementwise_affine=True)
  (ln3): LayerNorm((256,), eps=1e-05, elementwise_affine=True)
  (ln4): LayerNorm((128,), eps=1e-05, elementwise_affine=True)
  (dropout): Dropout(p=0, inplace=False)
)
ModelDNN_5layers(
  (fc1): Linear(in_features=1920, out_features=1024, bias=True)
  (fc2): Linear(in_features=1024, out_features=512, bias=True)
  (fc3): Linear(in_features=512, out_features=256, bias=True)
  (fc4): Linear(in_features=256, out_features=128, bias=True)
  (fc5): Linear(in_features=128, out_features=3, bias=True)
  (ln1): LayerNorm((1024,), eps=1e-05, elementwise_affine=True)
  (ln2): LayerNorm((512,), eps=1e-05, elementwise_affine=True)
  (ln3): LayerNorm((256,), eps=1e-05, elementwise_affine=True)
  (ln4): LayerNorm((128,), eps=1e-05, elementwise_affine=True)
  (dropout): Dropout(p=0, inplace=False)
)
ModelDNN_5layers(
  (fc1): Linear(in_features=1920, out_features=1024, bias=True)
  (fc2): Linear(in_features=1024, out_features=512, bias=True)
  (fc3): Linear(in_features=512, out_features=256, bias=True)
  (fc4): Linear(in_features=256, out_features=128, bias=True)
  (fc5): Linear(in_features=128, out_features=3, bias=True)
  (ln1): LayerNorm((1024,), eps=1e-05, elementwise_affine=True)
  (ln2): LayerNorm((512,), eps=1e-05, elementwise_affine=True)
  (ln3): LayerNorm((256,), eps=1e-05, elementwise_affine=True)
  (ln4): LayerNorm((128,), eps=1e-05, elementwise_affine=True)
  (dropout): Dropout(p=0, inplace=False)
)
ModelDNN_5layers(
  (fc1): Linear(in_features=1920, out_features=2880, bias=True)
  (fc2): Linear(in_features=2880, out_features=1440, bias=True)
  (fc3): Linear(in_features=1440, out_features=720, bias=True)
  (fc4): Linear(in_features=720, out_features=360, bias=True)
  (fc5): Linear(in_features=360, out_features=3, bias=True)
  (ln1): LayerNorm((2880,), eps=1e-05, elementwise_affine=True)
  (ln2): LayerNorm((1440,), eps=1e-05, elementwise_affine=True)
  (ln3): LayerNorm((720,), eps=1e-05, elementwise_affine=True)
  (ln4): LayerNorm((360,), eps=1e-05, elementwise_affine=True)
  (dropout): Dropout(p=0, inplace=False)
)
ModelDNN_5layers(
  (fc1): Linear(in_features=1920, out_features=2560, bias=True)
  (fc2): Linear(in_features=2560, out_features=1280, bias=True)
  (fc3): Linear(in_features=1280, out_features=640, bias=True)
  (fc4): Linear(in_features=640, out_features=320, bias=True)
  (fc5): Linear(in_features=320, out_features=3, bias=True)
  (ln1): LayerNorm((2560,), eps=1e-05, elementwise_affine=True)
  (ln2): LayerNorm((1280,), eps=1e-05, elementwise_affine=True)
  (ln3): LayerNorm((640,), eps=1e-05, elementwise_affine=True)
  (ln4): LayerNorm((320,), eps=1e-05, elementwise_affine=True)
  (dropout): Dropout(p=0, inplace=False)
)
ModelDNN_5layers(
  (fc1): Linear(in_features=1920, out_features=2240, bias=True)
  (fc2): Linear(in_features=2240, out_features=1120, bias=True)
  (fc3): Linear(in_features=1120, out_features=560, bias=True)
  (fc4): Linear(in_features=560, out_features=280, bias=True)
  (fc5): Linear(in_features=280, out_features=3, bias=True)
  (ln1): LayerNorm((2240,), eps=1e-05, elementwise_affine=True)
  (ln2): LayerNorm((1120,), eps=1e-05, elementwise_affine=True)
  (ln3): LayerNorm((560,), eps=1e-05, elementwise_affine=True)
  (ln4): LayerNorm((280,), eps=1e-05, elementwise_affine=True)
  (dropout): Dropout(p=0, inplace=False)
)
ModelDNN_5layers(
  (fc1): Linear(in_features=1920, out_features=3200, bias=True)
  (fc2): Linear(in_features=3200, out_features=1600, bias=True)
  (fc3): Linear(in_features=1600, out_features=800, bias=True)
  (fc4): Linear(in_features=800, out_features=400, bias=True)
  (fc5): Linear(in_features=400, out_features=3, bias=True)
  (ln1): LayerNorm((3200,), eps=1e-05, elementwise_affine=True)
  (ln2): LayerNorm((1600,), eps=1e-05, elementwise_affine=True)
  (ln3): LayerNorm((800,), eps=1e-05, elementwise_affine=True)
  (ln4): LayerNorm((400,), eps=1e-05, elementwise_affine=True)
  (dropout): Dropout(p=0, inplace=False)
)
ModelDNN_5layers(
  (fc1): Linear(in_features=1920, out_features=1920, bias=True)
  (fc2): Linear(in_features=1920, out_features=960, bias=True)
  (fc3): Linear(in_features=960, out_features=480, bias=True)
  (fc4): Linear(in_features=480, out_features=240, bias=True)
  (fc5): Linear(in_features=240, out_features=3, bias=True)
  (ln1): LayerNorm((1920,), eps=1e-05, elementwise_affine=True)
  (ln2): LayerNorm((960,), eps=1e-05, elementwise_affine=True)
  (ln3): LayerNorm((480,), eps=1e-05, elementwise_affine=True)
  (ln4): LayerNorm((240,), eps=1e-05, elementwise_affine=True)
  (dropout): Dropout(p=0, inplace=False)
)
ModelDNN_5layers(
  (fc1): Linear(in_features=1920, out_features=1280, bias=True)
  (fc2): Linear(in_features=1280, out_features=640, bias=True)
  (fc3): Linear(in_features=640, out_features=320, bias=True)
  (fc4): Linear(in_features=320, out_features=160, bias=True)
  (fc5): Linear(in_features=160, out_features=3, bias=True)
  (ln1): LayerNorm((1280,), eps=1e-05, elementwise_affine=True)
  (ln2): LayerNorm((640,), eps=1e-05, elementwise_affine=True)
  (ln3): LayerNorm((320,), eps=1e-05, elementwise_affine=True)
  (ln4): LayerNorm((160,), eps=1e-05, elementwise_affine=True)
  (dropout): Dropout(p=0, inplace=False)
)
ModelDNN_5layers(
  (fc1): Linear(in_features=1920, out_features=1600, bias=True)
  (fc2): Linear(in_features=1600, out_features=800, bias=True)
  (fc3): Linear(in_features=800, out_features=400, bias=True)
  (fc4): Linear(in_features=400, out_features=200, bias=True)
  (fc5): Linear(in_features=200, out_features=3, bias=True)
  (ln1): LayerNorm((1600,), eps=1e-05, elementwise_affine=True)
  (ln2): LayerNorm((800,), eps=1e-05, elementwise_affine=True)
  (ln3): LayerNorm((400,), eps=1e-05, elementwise_affine=True)
  (ln4): LayerNorm((200,), eps=1e-05, elementwise_affine=True)
  (dropout): Dropout(p=0, inplace=False)
)
ModelDNN_5layers(
  (fc1): Linear(in_features=1920, out_features=1024, bias=True)
  (fc2): Linear(in_features=1024, out_features=512, bias=True)
  (fc3): Linear(in_features=512, out_features=256, bias=True)
  (fc4): Linear(in_features=256, out_features=128, bias=True)
  (fc5): Linear(in_features=128, out_features=3, bias=True)
  (ln1): LayerNorm((1024,), eps=1e-05, elementwise_affine=True)
  (ln2): LayerNorm((512,), eps=1e-05, elementwise_affine=True)
  (ln3): LayerNorm((256,), eps=1e-05, elementwise_affine=True)
  (ln4): LayerNorm((128,), eps=1e-05, elementwise_affine=True)
  (dropout): Dropout(p=0, inplace=False)
)
ModelDNN_5layers(
  (fc1): Linear(in_features=1920, out_features=1024, bias=True)
  (fc2): Linear(in_features=1024, out_features=512, bias=True)
  (fc3): Linear(in_features=512, out_features=256, bias=True)
  (fc4): Linear(in_features=256, out_features=128, bias=True)
  (fc5): Linear(in_features=128, out_features=3, bias=True)
  (ln1): LayerNorm((1024,), eps=1e-05, elementwise_affine=True)
  (ln2): LayerNorm((512,), eps=1e-05, elementwise_affine=True)
  (ln3): LayerNorm((256,), eps=1e-05, elementwise_affine=True)
  (ln4): LayerNorm((128,), eps=1e-05, elementwise_affine=True)
  (dropout): Dropout(p=0, inplace=False)
)
ModelDNN_5layers(
  (fc1): Linear(in_features=1920, out_features=1024, bias=True)
  (fc2): Linear(in_features=1024, out_features=512, bias=True)
  (fc3): Linear(in_features=512, out_features=256, bias=True)
  (fc4): Linear(in_features=256, out_features=128, bias=True)
  (fc5): Linear(in_features=128, out_features=3, bias=True)
  (ln1): LayerNorm((1024,), eps=1e-05, elementwise_affine=True)
  (ln2): LayerNorm((512,), eps=1e-05, elementwise_affine=True)
  (ln3): LayerNorm((256,), eps=1e-05, elementwise_affine=True)
  (ln4): LayerNorm((128,), eps=1e-05, elementwise_affine=True)
  (dropout): Dropout(p=0, inplace=False)
)
ModelDNN_5layers(
  (fc1): Linear(in_features=1920, out_features=1024, bias=True)
  (fc2): Linear(in_features=1024, out_features=512, bias=True)
  (fc3): Linear(in_features=512, out_features=256, bias=True)
  (fc4): Linear(in_features=256, out_features=128, bias=True)
  (fc5): Linear(in_features=128, out_features=3, bias=True)
  (ln1): LayerNorm((1024,), eps=1e-05, elementwise_affine=True)
  (ln2): LayerNorm((512,), eps=1e-05, elementwise_affine=True)
  (ln3): LayerNorm((256,), eps=1e-05, elementwise_affine=True)
  (ln4): LayerNorm((128,), eps=1e-05, elementwise_affine=True)
  (dropout): Dropout(p=0, inplace=False)
)
ModelDNN_5layers(
  (fc1): Linear(in_features=1920, out_features=160, bias=True)
  (fc2): Linear(in_features=160, out_features=80, bias=True)
  (fc3): Linear(in_features=80, out_features=40, bias=True)
  (fc4): Linear(in_features=40, out_features=20, bias=True)
  (fc5): Linear(in_features=20, out_features=3, bias=True)
  (ln1): LayerNorm((160,), eps=1e-05, elementwise_affine=True)
  (ln2): LayerNorm((80,), eps=1e-05, elementwise_affine=True)
  (ln3): LayerNorm((40,), eps=1e-05, elementwise_affine=True)
  (ln4): LayerNorm((20,), eps=1e-05, elementwise_affine=True)
  (dropout): Dropout(p=0, inplace=False)
)
ModelDNN_5layers(
  (fc1): Linear(in_features=1920, out_features=960, bias=True)
  (fc2): Linear(in_features=960, out_features=480, bias=True)
  (fc3): Linear(in_features=480, out_features=240, bias=True)
  (fc4): Linear(in_features=240, out_features=120, bias=True)
  (fc5): Linear(in_features=120, out_features=3, bias=True)
  (ln1): LayerNorm((960,), eps=1e-05, elementwise_affine=True)
  (ln2): LayerNorm((480,), eps=1e-05, elementwise_affine=True)
  (ln3): LayerNorm((240,), eps=1e-05, elementwise_affine=True)
  (ln4): LayerNorm((120,), eps=1e-05, elementwise_affine=True)
  (dropout): Dropout(p=0, inplace=False)
)
ModelDNN_5layers(
  (fc1): Linear(in_features=1920, out_features=320, bias=True)
  (fc2): Linear(in_features=320, out_features=160, bias=True)
  (fc3): Linear(in_features=160, out_features=80, bias=True)
  (fc4): Linear(in_features=80, out_features=40, bias=True)
  (fc5): Linear(in_features=40, out_features=3, bias=True)
  (ln1): LayerNorm((320,), eps=1e-05, elementwise_affine=True)
  (ln2): LayerNorm((160,), eps=1e-05, elementwise_affine=True)
  (ln3): LayerNorm((80,), eps=1e-05, elementwise_affine=True)
  (ln4): LayerNorm((40,), eps=1e-05, elementwise_affine=True)
  (dropout): Dropout(p=0, inplace=False)
)
ModelDNN_5layers(
  (fc1): Linear(in_features=1920, out_features=640, bias=True)
  (fc2): Linear(in_features=640, out_features=320, bias=True)
  (fc3): Linear(in_features=320, out_features=160, bias=True)
  (fc4): Linear(in_features=160, out_features=80, bias=True)
  (fc5): Linear(in_features=80, out_features=3, bias=True)
  (ln1): LayerNorm((640,), eps=1e-05, elementwise_affine=True)
  (ln2): LayerNorm((320,), eps=1e-05, elementwise_affine=True)
  (ln3): LayerNorm((160,), eps=1e-05, elementwise_affine=True)
  (ln4): LayerNorm((80,), eps=1e-05, elementwise_affine=True)
  (dropout): Dropout(p=0, inplace=False)
)
ModelDNN_5layers(
  (fc1): Linear(in_features=1920, out_features=1024, bias=True)
  (fc2): Linear(in_features=1024, out_features=512, bias=True)
  (fc3): Linear(in_features=512, out_features=256, bias=True)
  (fc4): Linear(in_features=256, out_features=128, bias=True)
  (fc5): Linear(in_features=128, out_features=3, bias=True)
  (ln1): LayerNorm((1024,), eps=1e-05, elementwise_affine=True)
  (ln2): LayerNorm((512,), eps=1e-05, elementwise_affine=True)
  (ln3): LayerNorm((256,), eps=1e-05, elementwise_affine=True)
  (ln4): LayerNorm((128,), eps=1e-05, elementwise_affine=True)
  (dropout): Dropout(p=0, inplace=False)
)
ModelDNN_5layers(
  (fc1): Linear(in_features=1920, out_features=1024, bias=True)
  (fc2): Linear(in_features=1024, out_features=512, bias=True)
  (fc3): Linear(in_features=512, out_features=256, bias=True)
  (fc4): Linear(in_features=256, out_features=128, bias=True)
  (fc5): Linear(in_features=128, out_features=3, bias=True)
  (ln1): LayerNorm((1024,), eps=1e-05, elementwise_affine=True)
  (ln2): LayerNorm((512,), eps=1e-05, elementwise_affine=True)
  (ln3): LayerNorm((256,), eps=1e-05, elementwise_affine=True)
  (ln4): LayerNorm((128,), eps=1e-05, elementwise_affine=True)
  (dropout): Dropout(p=0, inplace=False)
)
ModelDNN_FlexibleLayers(
  (fc_layers): ModuleList(
    (0): Linear(in_features=1920, out_features=2048, bias=True)
    (1): LayerNorm((2048,), eps=1e-05, elementwise_affine=True)
    (2): Linear(in_features=2048, out_features=512, bias=True)
    (3): LayerNorm((512,), eps=1e-05, elementwise_affine=True)
    (4): Linear(in_features=512, out_features=3, bias=True)
  )
  (dropout): Dropout(p=0, inplace=False)
)
ModelDNN_FlexibleLayers(
  (fc_layers): ModuleList(
    (0): Linear(in_features=1920, out_features=2048, bias=True)
    (1): LayerNorm((2048,), eps=1e-05, elementwise_affine=True)
    (2): Linear(in_features=2048, out_features=512, bias=True)
    (3): LayerNorm((512,), eps=1e-05, elementwise_affine=True)
    (4): Linear(in_features=512, out_features=3, bias=True)
  )
  (dropout): Dropout(p=0, inplace=False)
)
ModelDNN_FlexibleLayers(
  (fc_layers): ModuleList(
    (0): Linear(in_features=1920, out_features=2048, bias=True)
    (1): LayerNorm((2048,), eps=1e-05, elementwise_affine=True)
    (2): Linear(in_features=2048, out_features=512, bias=True)
    (3): LayerNorm((512,), eps=1e-05, elementwise_affine=True)
    (4): Linear(in_features=512, out_features=3, bias=True)
  )
  (dropout): Dropout(p=0, inplace=False)
)
ModelDNN_FlexibleLayers(
  (fc_layers): ModuleList(
    (0): Linear(in_features=1920, out_features=2048, bias=True)
    (1): LayerNorm((2048,), eps=1e-05, elementwise_affine=True)
    (2): Linear(in_features=2048, out_features=512, bias=True)
    (3): LayerNorm((512,), eps=1e-05, elementwise_affine=True)
    (4): Linear(in_features=512, out_features=3, bias=True)
  )
  (dropout): Dropout(p=0, inplace=False)
)
ModelDNN_FlexibleLayers(
  (fc_layers): ModuleList(
    (0): Linear(in_features=1920, out_features=2048, bias=True)
    (1): LayerNorm((2048,), eps=1e-05, elementwise_affine=True)
    (2): Linear(in_features=2048, out_features=512, bias=True)
    (3): LayerNorm((512,), eps=1e-05, elementwise_affine=True)
    (4): Linear(in_features=512, out_features=3, bias=True)
  )
  (dropout): Dropout(p=0, inplace=False)
)
ModelDNN_FlexibleLayers(
  (fc_layers): ModuleList(
    (0): Linear(in_features=1920, out_features=2048, bias=True)
    (1): LayerNorm((2048,), eps=1e-05, elementwise_affine=True)
    (2): Linear(in_features=2048, out_features=512, bias=True)
    (3): LayerNorm((512,), eps=1e-05, elementwise_affine=True)
    (4): Linear(in_features=512, out_features=3, bias=True)
  )
  (dropout): Dropout(p=0, inplace=False)
)
ModelDNN_FlexibleLayers(
  (fc_layers): ModuleList(
    (0): Linear(in_features=1920, out_features=2048, bias=True)
    (1): LayerNorm((2048,), eps=1e-05, elementwise_affine=True)
    (2): Linear(in_features=2048, out_features=512, bias=True)
    (3): LayerNorm((512,), eps=1e-05, elementwise_affine=True)
    (4): Linear(in_features=512, out_features=3, bias=True)
  )
  (dropout): Dropout(p=0, inplace=False)
)
ModelDNN_FlexibleLayers(
  (fc_layers): ModuleList(
    (0): Linear(in_features=1920, out_features=2048, bias=True)
    (1): LayerNorm((2048,), eps=1e-05, elementwise_affine=True)
    (2): Linear(in_features=2048, out_features=512, bias=True)
    (3): LayerNorm((512,), eps=1e-05, elementwise_affine=True)
    (4): Linear(in_features=512, out_features=3, bias=True)
  )
  (dropout): Dropout(p=0, inplace=False)
)
ModelDNN_FlexibleLayers(
  (fc_layers): ModuleList(
    (0): Linear(in_features=1920, out_features=2048, bias=True)
    (1): LayerNorm((2048,), eps=1e-05, elementwise_affine=True)
    (2): Linear(in_features=2048, out_features=512, bias=True)
    (3): LayerNorm((512,), eps=1e-05, elementwise_affine=True)
    (4): Linear(in_features=512, out_features=3, bias=True)
  )
  (dropout): Dropout(p=0, inplace=False)
)
ModelDNN_FlexibleLayers(
  (fc_layers): ModuleList(
    (0): Linear(in_features=1920, out_features=2048, bias=True)
    (1): LayerNorm((2048,), eps=1e-05, elementwise_affine=True)
    (2): Linear(in_features=2048, out_features=512, bias=True)
    (3): LayerNorm((512,), eps=1e-05, elementwise_affine=True)
    (4): Linear(in_features=512, out_features=3, bias=True)
  )
  (dropout): Dropout(p=0, inplace=False)
)
ModelDNN_FlexibleLayers(
  (fc_layers): ModuleList(
    (0): Linear(in_features=1920, out_features=2048, bias=True)
    (1): LayerNorm((2048,), eps=1e-05, elementwise_affine=True)
    (2): Linear(in_features=2048, out_features=512, bias=True)
    (3): LayerNorm((512,), eps=1e-05, elementwise_affine=True)
    (4): Linear(in_features=512, out_features=3, bias=True)
  )
  (dropout): Dropout(p=0, inplace=False)
)
ModelDNN_FlexibleLayers(
  (fc_layers): ModuleList(
    (0): Linear(in_features=1920, out_features=2048, bias=True)
    (1): LayerNorm((2048,), eps=1e-05, elementwise_affine=True)
    (2): Linear(in_features=2048, out_features=512, bias=True)
    (3): LayerNorm((512,), eps=1e-05, elementwise_affine=True)
    (4): Linear(in_features=512, out_features=3, bias=True)
  )
  (dropout): Dropout(p=0, inplace=False)
)
ModelDNN_FlexibleLayers(
  (fc_layers): ModuleList(
    (0): Linear(in_features=1920, out_features=2048, bias=True)
    (1): LayerNorm((2048,), eps=1e-05, elementwise_affine=True)
    (2): Linear(in_features=2048, out_features=512, bias=True)
    (3): LayerNorm((512,), eps=1e-05, elementwise_affine=True)
    (4): Linear(in_features=512, out_features=3, bias=True)
  )
  (dropout): Dropout(p=0, inplace=False)
)
ModelDNN_FlexibleLayers(
  (fc_layers): ModuleList(
    (0): Linear(in_features=1920, out_features=2048, bias=True)
    (1): LayerNorm((2048,), eps=1e-05, elementwise_affine=True)
    (2): Linear(in_features=2048, out_features=512, bias=True)
    (3): LayerNorm((512,), eps=1e-05, elementwise_affine=True)
    (4): Linear(in_features=512, out_features=3, bias=True)
  )
  (dropout): Dropout(p=0, inplace=False)
)
ModelDNN_FlexibleLayers(
  (fc_layers): ModuleList(
    (0): Linear(in_features=1920, out_features=2048, bias=True)
    (1): LayerNorm((2048,), eps=1e-05, elementwise_affine=True)
    (2): Linear(in_features=2048, out_features=512, bias=True)
    (3): LayerNorm((512,), eps=1e-05, elementwise_affine=True)
    (4): Linear(in_features=512, out_features=3, bias=True)
  )
  (dropout): Dropout(p=0, inplace=False)
)
ModelDNN_FlexibleLayers(
  (fc_layers): ModuleList(
    (0): Linear(in_features=1920, out_features=2048, bias=True)
    (1): LayerNorm((2048,), eps=1e-05, elementwise_affine=True)
    (2): Linear(in_features=2048, out_features=512, bias=True)
    (3): LayerNorm((512,), eps=1e-05, elementwise_affine=True)
    (4): Linear(in_features=512, out_features=3, bias=True)
  )
  (dropout): Dropout(p=0, inplace=False)
)
ModelDNN_FlexibleLayers(
  (fc_layers): ModuleList(
    (0): Linear(in_features=1920, out_features=2048, bias=True)
    (1): LayerNorm((2048,), eps=1e-05, elementwise_affine=True)
    (2): Linear(in_features=2048, out_features=512, bias=True)
    (3): LayerNorm((512,), eps=1e-05, elementwise_affine=True)
    (4): Linear(in_features=512, out_features=3, bias=True)
  )
  (dropout): Dropout(p=0, inplace=False)
)
ModelDNN_FlexibleLayers(
  (fc_layers): ModuleList(
    (0): Linear(in_features=1920, out_features=2048, bias=True)
    (1): LayerNorm((2048,), eps=1e-05, elementwise_affine=True)
    (2): Linear(in_features=2048, out_features=512, bias=True)
    (3): LayerNorm((512,), eps=1e-05, elementwise_affine=True)
    (4): Linear(in_features=512, out_features=3, bias=True)
  )
  (dropout): Dropout(p=0, inplace=False)
)
ModelDNN_FlexibleLayers(
  (fc_layers): ModuleList(
    (0): Linear(in_features=1920, out_features=2048, bias=True)
    (1): LayerNorm((2048,), eps=1e-05, elementwise_affine=True)
    (2): Linear(in_features=2048, out_features=512, bias=True)
    (3): LayerNorm((512,), eps=1e-05, elementwise_affine=True)
    (4): Linear(in_features=512, out_features=3, bias=True)
  )
  (dropout): Dropout(p=0, inplace=False)
)
ModelDNN_FlexibleLayers(
  (fc_layers): ModuleList(
    (0): Linear(in_features=1920, out_features=2048, bias=True)
    (1): LayerNorm((2048,), eps=1e-05, elementwise_affine=True)
    (2): Linear(in_features=2048, out_features=512, bias=True)
    (3): LayerNorm((512,), eps=1e-05, elementwise_affine=True)
    (4): Linear(in_features=512, out_features=3, bias=True)
  )
  (dropout): Dropout(p=0, inplace=False)
)
ModelDNN_FlexibleLayers(
  (fc_layers): ModuleList(
    (0): Linear(in_features=1920, out_features=2048, bias=True)
    (1): LayerNorm((2048,), eps=1e-05, elementwise_affine=True)
    (2): Linear(in_features=2048, out_features=512, bias=True)
    (3): LayerNorm((512,), eps=1e-05, elementwise_affine=True)
    (4): Linear(in_features=512, out_features=3, bias=True)
  )
  (dropout): Dropout(p=0, inplace=False)
)
ModelDNN_FlexibleLayers(
  (fc_layers): ModuleList(
    (0): Linear(in_features=1920, out_features=2048, bias=True)
    (1): LayerNorm((2048,), eps=1e-05, elementwise_affine=True)
    (2): Linear(in_features=2048, out_features=512, bias=True)
    (3): LayerNorm((512,), eps=1e-05, elementwise_affine=True)
    (4): Linear(in_features=512, out_features=3, bias=True)
  )
  (dropout): Dropout(p=0, inplace=False)
)
ModelDNN_FlexibleLayers(
  (fc_layers): ModuleList(
    (0): Linear(in_features=1920, out_features=2048, bias=True)
    (1): LayerNorm((2048,), eps=1e-05, elementwise_affine=True)
    (2): Linear(in_features=2048, out_features=512, bias=True)
    (3): LayerNorm((512,), eps=1e-05, elementwise_affine=True)
    (4): Linear(in_features=512, out_features=3, bias=True)
  )
  (dropout): Dropout(p=0, inplace=False)
)
ModelDNN_FlexibleLayers(
  (fc_layers): ModuleList(
    (0): Linear(in_features=1920, out_features=2048, bias=True)
    (1): LayerNorm((2048,), eps=1e-05, elementwise_affine=True)
    (2): Linear(in_features=2048, out_features=512, bias=True)
    (3): LayerNorm((512,), eps=1e-05, elementwise_affine=True)
    (4): Linear(in_features=512, out_features=3, bias=True)
  )
  (dropout): Dropout(p=0, inplace=False)
)
ModelDNN_FlexibleLayers(
  (fc_layers): ModuleList(
    (0): Linear(in_features=1920, out_features=2048, bias=True)
    (1): LayerNorm((2048,), eps=1e-05, elementwise_affine=True)
    (2): Linear(in_features=2048, out_features=512, bias=True)
    (3): LayerNorm((512,), eps=1e-05, elementwise_affine=True)
    (4): Linear(in_features=512, out_features=3, bias=True)
  )
  (dropout): Dropout(p=0, inplace=False)
)
ModelDNN_FlexibleLayers(
  (fc_layers): ModuleList(
    (0): Linear(in_features=1920, out_features=2048, bias=True)
    (1): LayerNorm((2048,), eps=1e-05, elementwise_affine=True)
    (2): Linear(in_features=2048, out_features=512, bias=True)
    (3): LayerNorm((512,), eps=1e-05, elementwise_affine=True)
    (4): Linear(in_features=512, out_features=3, bias=True)
  )
  (dropout): Dropout(p=0, inplace=False)
)
ModelDNN_FlexibleLayers(
  (fc_layers): ModuleList(
    (0): Linear(in_features=1920, out_features=2048, bias=True)
    (1): LayerNorm((2048,), eps=1e-05, elementwise_affine=True)
    (2): Linear(in_features=2048, out_features=512, bias=True)
    (3): LayerNorm((512,), eps=1e-05, elementwise_affine=True)
    (4): Linear(in_features=512, out_features=3, bias=True)
  )
  (dropout): Dropout(p=0, inplace=False)
)
ModelDNN_FlexibleLayers(
  (fc_layers): ModuleList(
    (0): Linear(in_features=1920, out_features=2048, bias=True)
    (1): LayerNorm((2048,), eps=1e-05, elementwise_affine=True)
    (2): Linear(in_features=2048, out_features=512, bias=True)
    (3): LayerNorm((512,), eps=1e-05, elementwise_affine=True)
    (4): Linear(in_features=512, out_features=3, bias=True)
  )
  (dropout): Dropout(p=0, inplace=False)
)
ModelDNN_FlexibleLayers(
  (fc_layers): ModuleList(
    (0): Linear(in_features=1920, out_features=2048, bias=True)
    (1): LayerNorm((2048,), eps=1e-05, elementwise_affine=True)
    (2): Linear(in_features=2048, out_features=512, bias=True)
    (3): LayerNorm((512,), eps=1e-05, elementwise_affine=True)
    (4): Linear(in_features=512, out_features=3, bias=True)
  )
  (dropout): Dropout(p=0, inplace=False)
)
ModelDNN_FlexibleLayers(
  (fc_layers): ModuleList(
    (0): Linear(in_features=1920, out_features=2048, bias=True)
    (1): LayerNorm((2048,), eps=1e-05, elementwise_affine=True)
    (2): Linear(in_features=2048, out_features=512, bias=True)
    (3): LayerNorm((512,), eps=1e-05, elementwise_affine=True)
    (4): Linear(in_features=512, out_features=3, bias=True)
  )
  (dropout): Dropout(p=0, inplace=False)
)
ModelDNN_FlexibleLayers(
  (fc_layers): ModuleList(
    (0): Linear(in_features=1920, out_features=2048, bias=True)
    (1): LayerNorm((2048,), eps=1e-05, elementwise_affine=True)
    (2): Linear(in_features=2048, out_features=512, bias=True)
    (3): LayerNorm((512,), eps=1e-05, elementwise_affine=True)
    (4): Linear(in_features=512, out_features=3, bias=True)
  )
  (dropout): Dropout(p=0, inplace=False)
)
ModelDNN_FlexibleLayers(
  (fc_layers): ModuleList(
    (0): Linear(in_features=1920, out_features=2048, bias=True)
    (1): LayerNorm((2048,), eps=1e-05, elementwise_affine=True)
    (2): Linear(in_features=2048, out_features=512, bias=True)
    (3): LayerNorm((512,), eps=1e-05, elementwise_affine=True)
    (4): Linear(in_features=512, out_features=3, bias=True)
  )
  (dropout): Dropout(p=0, inplace=False)
)
ModelDNN_FlexibleLayers(
  (fc_layers): ModuleList(
    (0): Linear(in_features=1920, out_features=2048, bias=True)
    (1): LayerNorm((2048,), eps=1e-05, elementwise_affine=True)
    (2): Linear(in_features=2048, out_features=512, bias=True)
    (3): LayerNorm((512,), eps=1e-05, elementwise_affine=True)
    (4): Linear(in_features=512, out_features=3, bias=True)
  )
  (dropout): Dropout(p=0, inplace=False)
)
ModelDNN_FlexibleLayers(
  (fc_layers): ModuleList(
    (0): Linear(in_features=1920, out_features=2048, bias=True)
    (1): LayerNorm((2048,), eps=1e-05, elementwise_affine=True)
    (2): Linear(in_features=2048, out_features=512, bias=True)
    (3): LayerNorm((512,), eps=1e-05, elementwise_affine=True)
    (4): Linear(in_features=512, out_features=3, bias=True)
  )
  (dropout): Dropout(p=0, inplace=False)
)
ModelDNN_FlexibleLayers(
  (fc_layers): ModuleList(
    (0): Linear(in_features=1920, out_features=2048, bias=True)
    (1): LayerNorm((2048,), eps=1e-05, elementwise_affine=True)
    (2): Linear(in_features=2048, out_features=512, bias=True)
    (3): LayerNorm((512,), eps=1e-05, elementwise_affine=True)
    (4): Linear(in_features=512, out_features=3, bias=True)
  )
  (dropout): Dropout(p=0, inplace=False)
)
ModelDNN_FlexibleLayers(
  (fc_layers): ModuleList(
    (0): Linear(in_features=1920, out_features=2048, bias=True)
    (1): LayerNorm((2048,), eps=1e-05, elementwise_affine=True)
    (2): Linear(in_features=2048, out_features=512, bias=True)
    (3): LayerNorm((512,), eps=1e-05, elementwise_affine=True)
    (4): Linear(in_features=512, out_features=3, bias=True)
  )
  (dropout): Dropout(p=0, inplace=False)
)
ModelDNN_FlexibleLayers(
  (fc_layers): ModuleList(
    (0): Linear(in_features=1920, out_features=2048, bias=True)
    (1): LayerNorm((2048,), eps=1e-05, elementwise_affine=True)
    (2): Linear(in_features=2048, out_features=512, bias=True)
    (3): LayerNorm((512,), eps=1e-05, elementwise_affine=True)
    (4): Linear(in_features=512, out_features=3, bias=True)
  )
  (dropout): Dropout(p=0, inplace=False)
)
ModelDNN_FlexibleLayers(
  (fc_layers): ModuleList(
    (0): Linear(in_features=1920, out_features=2048, bias=True)
    (1): LayerNorm((2048,), eps=1e-05, elementwise_affine=True)
    (2): Linear(in_features=2048, out_features=512, bias=True)
    (3): LayerNorm((512,), eps=1e-05, elementwise_affine=True)
    (4): Linear(in_features=512, out_features=3, bias=True)
  )
  (dropout): Dropout(p=0, inplace=False)
)
ModelDNN_FlexibleLayers(
  (fc_layers): ModuleList(
    (0): Linear(in_features=1920, out_features=2048, bias=True)
    (1): LayerNorm((2048,), eps=1e-05, elementwise_affine=True)
    (2): Linear(in_features=2048, out_features=512, bias=True)
    (3): LayerNorm((512,), eps=1e-05, elementwise_affine=True)
    (4): Linear(in_features=512, out_features=3, bias=True)
  )
  (dropout): Dropout(p=0, inplace=False)
)
ModelDNN_FlexibleLayers(
  (fc_layers): ModuleList(
    (0): Linear(in_features=1920, out_features=2048, bias=True)
    (1): LayerNorm((2048,), eps=1e-05, elementwise_affine=True)
    (2): Linear(in_features=2048, out_features=512, bias=True)
    (3): LayerNorm((512,), eps=1e-05, elementwise_affine=True)
    (4): Linear(in_features=512, out_features=3, bias=True)
  )
  (dropout): Dropout(p=0, inplace=False)
)
ModelDNN_FlexibleLayers(
  (fc_layers): ModuleList(
    (0): Linear(in_features=1920, out_features=2048, bias=True)
    (1): LayerNorm((2048,), eps=1e-05, elementwise_affine=True)
    (2): Linear(in_features=2048, out_features=512, bias=True)
    (3): LayerNorm((512,), eps=1e-05, elementwise_affine=True)
    (4): Linear(in_features=512, out_features=3, bias=True)
  )
  (dropout): Dropout(p=0, inplace=False)
)
ModelDNN_FlexibleLayers(
  (fc_layers): ModuleList(
    (0): Linear(in_features=1920, out_features=2048, bias=True)
    (1): LayerNorm((2048,), eps=1e-05, elementwise_affine=True)
    (2): Linear(in_features=2048, out_features=512, bias=True)
    (3): LayerNorm((512,), eps=1e-05, elementwise_affine=True)
    (4): Linear(in_features=512, out_features=3, bias=True)
  )
  (dropout): Dropout(p=0, inplace=False)
)
ModelDNN_FlexibleLayers(
  (fc_layers): ModuleList(
    (0): Linear(in_features=1920, out_features=2048, bias=True)
    (1): LayerNorm((2048,), eps=1e-05, elementwise_affine=True)
    (2): Linear(in_features=2048, out_features=512, bias=True)
    (3): LayerNorm((512,), eps=1e-05, elementwise_affine=True)
    (4): Linear(in_features=512, out_features=3, bias=True)
  )
  (dropout): Dropout(p=0, inplace=False)
)
ModelDNN_FlexibleLayers(
  (fc_layers): ModuleList(
    (0): Linear(in_features=1920, out_features=2048, bias=True)
    (1): LayerNorm((2048,), eps=1e-05, elementwise_affine=True)
    (2): Linear(in_features=2048, out_features=512, bias=True)
    (3): LayerNorm((512,), eps=1e-05, elementwise_affine=True)
    (4): Linear(in_features=512, out_features=3, bias=True)
  )
  (dropout): Dropout(p=0, inplace=False)
)
ModelDNN_FlexibleLayers(
  (fc_layers): ModuleList(
    (0): Linear(in_features=1920, out_features=2048, bias=True)
    (1): LayerNorm((2048,), eps=1e-05, elementwise_affine=True)
    (2): Linear(in_features=2048, out_features=512, bias=True)
    (3): LayerNorm((512,), eps=1e-05, elementwise_affine=True)
    (4): Linear(in_features=512, out_features=3, bias=True)
  )
  (dropout): Dropout(p=0, inplace=False)
)
ModelDNN_FlexibleLayers(
  (fc_layers): ModuleList(
    (0): Linear(in_features=1920, out_features=2048, bias=True)
    (1): LayerNorm((2048,), eps=1e-05, elementwise_affine=True)
    (2): Linear(in_features=2048, out_features=512, bias=True)
    (3): LayerNorm((512,), eps=1e-05, elementwise_affine=True)
    (4): Linear(in_features=512, out_features=3, bias=True)
  )
  (dropout): Dropout(p=0, inplace=False)
)
ModelDNN_FlexibleLayers(
  (fc_layers): ModuleList(
    (0): Linear(in_features=1920, out_features=2048, bias=True)
    (1): LayerNorm((2048,), eps=1e-05, elementwise_affine=True)
    (2): Linear(in_features=2048, out_features=512, bias=True)
    (3): LayerNorm((512,), eps=1e-05, elementwise_affine=True)
    (4): Linear(in_features=512, out_features=3, bias=True)
  )
  (dropout): Dropout(p=0, inplace=False)
)
ModelDNN_FlexibleLayers(
  (fc_layers): ModuleList(
    (0): Linear(in_features=1920, out_features=2048, bias=True)
    (1): LayerNorm((2048,), eps=1e-05, elementwise_affine=True)
    (2): Linear(in_features=2048, out_features=512, bias=True)
    (3): LayerNorm((512,), eps=1e-05, elementwise_affine=True)
    (4): Linear(in_features=512, out_features=3, bias=True)
  )
  (dropout): Dropout(p=0, inplace=False)
)
ModelDNN_FlexibleLayers(
  (fc_layers): ModuleList(
    (0): Linear(in_features=1920, out_features=2048, bias=True)
    (1): LayerNorm((2048,), eps=1e-05, elementwise_affine=True)
    (2): Linear(in_features=2048, out_features=512, bias=True)
    (3): LayerNorm((512,), eps=1e-05, elementwise_affine=True)
    (4): Linear(in_features=512, out_features=3, bias=True)
  )
  (dropout): Dropout(p=0, inplace=False)
)
ModelDNN_FlexibleLayers(
  (fc_layers): ModuleList(
    (0): Linear(in_features=1920, out_features=2048, bias=True)
    (1): LayerNorm((2048,), eps=1e-05, elementwise_affine=True)
    (2): Linear(in_features=2048, out_features=512, bias=True)
    (3): LayerNorm((512,), eps=1e-05, elementwise_affine=True)
    (4): Linear(in_features=512, out_features=3, bias=True)
  )
  (dropout): Dropout(p=0, inplace=False)
)
ModelDNN_FlexibleLayers(
  (fc_layers): ModuleList(
    (0): Linear(in_features=1920, out_features=2048, bias=True)
    (1): LayerNorm((2048,), eps=1e-05, elementwise_affine=True)
    (2): Linear(in_features=2048, out_features=512, bias=True)
    (3): LayerNorm((512,), eps=1e-05, elementwise_affine=True)
    (4): Linear(in_features=512, out_features=3, bias=True)
  )
  (dropout): Dropout(p=0, inplace=False)
)
ModelDNN_FlexibleLayers(
  (fc_layers): ModuleList(
    (0): Linear(in_features=1920, out_features=2048, bias=True)
    (1): LayerNorm((2048,), eps=1e-05, elementwise_affine=True)
    (2): Linear(in_features=2048, out_features=512, bias=True)
    (3): LayerNorm((512,), eps=1e-05, elementwise_affine=True)
    (4): Linear(in_features=512, out_features=3, bias=True)
  )
  (dropout): Dropout(p=0, inplace=False)
)
ModelDNN_FlexibleLayers(
  (fc_layers): ModuleList(
    (0): Linear(in_features=1920, out_features=2048, bias=True)
    (1): LayerNorm((2048,), eps=1e-05, elementwise_affine=True)
    (2): Linear(in_features=2048, out_features=512, bias=True)
    (3): LayerNorm((512,), eps=1e-05, elementwise_affine=True)
    (4): Linear(in_features=512, out_features=3, bias=True)
  )
  (dropout): Dropout(p=0, inplace=False)
)
ModelDNN_FlexibleLayers(
  (fc_layers): ModuleList(
    (0): Linear(in_features=1920, out_features=2048, bias=True)
    (1): LayerNorm((2048,), eps=1e-05, elementwise_affine=True)
    (2): Linear(in_features=2048, out_features=512, bias=True)
    (3): LayerNorm((512,), eps=1e-05, elementwise_affine=True)
    (4): Linear(in_features=512, out_features=3, bias=True)
  )
  (dropout): Dropout(p=0, inplace=False)
)
ModelDNN_FlexibleLayers(
  (fc_layers): ModuleList(
    (0): Linear(in_features=1920, out_features=2048, bias=True)
    (1): LayerNorm((2048,), eps=1e-05, elementwise_affine=True)
    (2): Linear(in_features=2048, out_features=512, bias=True)
    (3): LayerNorm((512,), eps=1e-05, elementwise_affine=True)
    (4): Linear(in_features=512, out_features=3, bias=True)
  )
  (dropout): Dropout(p=0, inplace=False)
)
ModelDNN_FlexibleLayers(
  (fc_layers): ModuleList(
    (0): Linear(in_features=1920, out_features=2048, bias=True)
    (1): LayerNorm((2048,), eps=1e-05, elementwise_affine=True)
    (2): Linear(in_features=2048, out_features=512, bias=True)
    (3): LayerNorm((512,), eps=1e-05, elementwise_affine=True)
    (4): Linear(in_features=512, out_features=3, bias=True)
  )
  (dropout): Dropout(p=0, inplace=False)
)
ModelDNN_FlexibleLayers(
  (fc_layers): ModuleList(
    (0): Linear(in_features=1920, out_features=2048, bias=True)
    (1): LayerNorm((2048,), eps=1e-05, elementwise_affine=True)
    (2): Linear(in_features=2048, out_features=512, bias=True)
    (3): LayerNorm((512,), eps=1e-05, elementwise_affine=True)
    (4): Linear(in_features=512, out_features=3, bias=True)
  )
  (dropout): Dropout(p=0, inplace=False)
)
ModelDNN_FlexibleLayers(
  (fc_layers): ModuleList(
    (0): Linear(in_features=1920, out_features=2048, bias=True)
    (1): LayerNorm((2048,), eps=1e-05, elementwise_affine=True)
    (2): Linear(in_features=2048, out_features=512, bias=True)
    (3): LayerNorm((512,), eps=1e-05, elementwise_affine=True)
    (4): Linear(in_features=512, out_features=3, bias=True)
  )
  (dropout): Dropout(p=0, inplace=False)
)
ModelDNN_FlexibleLayers(
  (fc_layers): ModuleList(
    (0): Linear(in_features=1920, out_features=2048, bias=True)
    (1): LayerNorm((2048,), eps=1e-05, elementwise_affine=True)
    (2): Linear(in_features=2048, out_features=512, bias=True)
    (3): LayerNorm((512,), eps=1e-05, elementwise_affine=True)
    (4): Linear(in_features=512, out_features=3, bias=True)
  )
  (dropout): Dropout(p=0, inplace=False)
)
ModelDNN_FlexibleLayers(
  (fc_layers): ModuleList(
    (0): Linear(in_features=1920, out_features=2048, bias=True)
    (1): LayerNorm((2048,), eps=1e-05, elementwise_affine=True)
    (2): Linear(in_features=2048, out_features=512, bias=True)
    (3): LayerNorm((512,), eps=1e-05, elementwise_affine=True)
    (4): Linear(in_features=512, out_features=3, bias=True)
  )
  (dropout): Dropout(p=0, inplace=False)
)
ModelDNN_FlexibleLayers(
  (fc_layers): ModuleList(
    (0): Linear(in_features=1920, out_features=2048, bias=True)
    (1): LayerNorm((2048,), eps=1e-05, elementwise_affine=True)
    (2): Linear(in_features=2048, out_features=512, bias=True)
    (3): LayerNorm((512,), eps=1e-05, elementwise_affine=True)
    (4): Linear(in_features=512, out_features=3, bias=True)
  )
  (dropout): Dropout(p=0, inplace=False)
)
ModelDNN_FlexibleLayers(
  (fc_layers): ModuleList(
    (0): Linear(in_features=1920, out_features=2048, bias=True)
    (1): LayerNorm((2048,), eps=1e-05, elementwise_affine=True)
    (2): Linear(in_features=2048, out_features=512, bias=True)
    (3): LayerNorm((512,), eps=1e-05, elementwise_affine=True)
    (4): Linear(in_features=512, out_features=3, bias=True)
  )
  (dropout): Dropout(p=0, inplace=False)
)
ModelDNN_FlexibleLayers(
  (fc_layers): ModuleList(
    (0): Linear(in_features=1920, out_features=2048, bias=True)
    (1): LayerNorm((2048,), eps=1e-05, elementwise_affine=True)
    (2): Linear(in_features=2048, out_features=512, bias=True)
    (3): LayerNorm((512,), eps=1e-05, elementwise_affine=True)
    (4): Linear(in_features=512, out_features=3, bias=True)
  )
  (dropout): Dropout(p=0, inplace=False)
)
ModelDNN_FlexibleLayers(
  (fc_layers): ModuleList(
    (0): Linear(in_features=1920, out_features=2048, bias=True)
    (1): LayerNorm((2048,), eps=1e-05, elementwise_affine=True)
    (2): Linear(in_features=2048, out_features=512, bias=True)
    (3): LayerNorm((512,), eps=1e-05, elementwise_affine=True)
    (4): Linear(in_features=512, out_features=3, bias=True)
  )
  (dropout): Dropout(p=0, inplace=False)
)
ModelDNN_FlexibleLayers(
  (fc_layers): ModuleList(
    (0): Linear(in_features=1920, out_features=2048, bias=True)
    (1): LayerNorm((2048,), eps=1e-05, elementwise_affine=True)
    (2): Linear(in_features=2048, out_features=512, bias=True)
    (3): LayerNorm((512,), eps=1e-05, elementwise_affine=True)
    (4): Linear(in_features=512, out_features=3, bias=True)
  )
  (dropout): Dropout(p=0, inplace=False)
)
ModelDNN_FlexibleLayers(
  (fc_layers): ModuleList(
    (0): Linear(in_features=1920, out_features=2048, bias=True)
    (1): LayerNorm((2048,), eps=1e-05, elementwise_affine=True)
    (2): Linear(in_features=2048, out_features=512, bias=True)
    (3): LayerNorm((512,), eps=1e-05, elementwise_affine=True)
    (4): Linear(in_features=512, out_features=3, bias=True)
  )
  (dropout): Dropout(p=0, inplace=False)
)
ModelDNN_FlexibleLayers(
  (fc_layers): ModuleList(
    (0): Linear(in_features=1920, out_features=2048, bias=True)
    (1): LayerNorm((2048,), eps=1e-05, elementwise_affine=True)
    (2): Linear(in_features=2048, out_features=512, bias=True)
    (3): LayerNorm((512,), eps=1e-05, elementwise_affine=True)
    (4): Linear(in_features=512, out_features=3, bias=True)
  )
  (dropout): Dropout(p=0, inplace=False)
)
ModelDNN_FlexibleLayers(
  (fc_layers): ModuleList(
    (0): Linear(in_features=1920, out_features=2048, bias=True)
    (1): LayerNorm((2048,), eps=1e-05, elementwise_affine=True)
    (2): Linear(in_features=2048, out_features=512, bias=True)
    (3): LayerNorm((512,), eps=1e-05, elementwise_affine=True)
    (4): Linear(in_features=512, out_features=3, bias=True)
  )
  (dropout): Dropout(p=0, inplace=False)
)
ModelDNN_FlexibleLayers(
  (fc_layers): ModuleList(
    (0): Linear(in_features=1920, out_features=2048, bias=True)
    (1): LayerNorm((2048,), eps=1e-05, elementwise_affine=True)
    (2): Linear(in_features=2048, out_features=512, bias=True)
    (3): LayerNorm((512,), eps=1e-05, elementwise_affine=True)
    (4): Linear(in_features=512, out_features=3, bias=True)
  )
  (dropout): Dropout(p=0, inplace=False)
)
ModelDNN_FlexibleLayers(
  (fc_layers): ModuleList(
    (0): Linear(in_features=1920, out_features=2048, bias=True)
    (1): LayerNorm((2048,), eps=1e-05, elementwise_affine=True)
    (2): Linear(in_features=2048, out_features=512, bias=True)
    (3): LayerNorm((512,), eps=1e-05, elementwise_affine=True)
    (4): Linear(in_features=512, out_features=3, bias=True)
  )
  (dropout): Dropout(p=0, inplace=False)
)
ModelDNN_FlexibleLayers(
  (fc_layers): ModuleList(
    (0): Linear(in_features=1920, out_features=2048, bias=True)
    (1): LayerNorm((2048,), eps=1e-05, elementwise_affine=True)
    (2): Linear(in_features=2048, out_features=512, bias=True)
    (3): LayerNorm((512,), eps=1e-05, elementwise_affine=True)
    (4): Linear(in_features=512, out_features=3, bias=True)
  )
  (dropout): Dropout(p=0, inplace=False)
)
ModelDNN_FlexibleLayers(
  (fc_layers): ModuleList(
    (0): Linear(in_features=1920, out_features=2048, bias=True)
    (1): LayerNorm((2048,), eps=1e-05, elementwise_affine=True)
    (2): Linear(in_features=2048, out_features=512, bias=True)
    (3): LayerNorm((512,), eps=1e-05, elementwise_affine=True)
    (4): Linear(in_features=512, out_features=3, bias=True)
  )
  (dropout): Dropout(p=0, inplace=False)
)
ModelDNN_FlexibleLayers(
  (fc_layers): ModuleList(
    (0): Linear(in_features=1920, out_features=2048, bias=True)
    (1): LayerNorm((2048,), eps=1e-05, elementwise_affine=True)
    (2): Linear(in_features=2048, out_features=512, bias=True)
    (3): LayerNorm((512,), eps=1e-05, elementwise_affine=True)
    (4): Linear(in_features=512, out_features=3, bias=True)
  )
  (dropout): Dropout(p=0, inplace=False)
)
ModelDNN_FlexibleLayers(
  (fc_layers): ModuleList(
    (0): Linear(in_features=1920, out_features=2048, bias=True)
    (1): LayerNorm((2048,), eps=1e-05, elementwise_affine=True)
    (2): Linear(in_features=2048, out_features=512, bias=True)
    (3): LayerNorm((512,), eps=1e-05, elementwise_affine=True)
    (4): Linear(in_features=512, out_features=3, bias=True)
  )
  (dropout): Dropout(p=0, inplace=False)
)
ModelDNN_FlexibleLayers(
  (fc_layers): ModuleList(
    (0): Linear(in_features=1920, out_features=2048, bias=True)
    (1): LayerNorm((2048,), eps=1e-05, elementwise_affine=True)
    (2): Linear(in_features=2048, out_features=512, bias=True)
    (3): LayerNorm((512,), eps=1e-05, elementwise_affine=True)
    (4): Linear(in_features=512, out_features=3, bias=True)
  )
  (dropout): Dropout(p=0, inplace=False)
)
ModelDNN_FlexibleLayers(
  (fc_layers): ModuleList(
    (0): Linear(in_features=1920, out_features=2048, bias=True)
    (1): LayerNorm((2048,), eps=1e-05, elementwise_affine=True)
    (2): Linear(in_features=2048, out_features=512, bias=True)
    (3): LayerNorm((512,), eps=1e-05, elementwise_affine=True)
    (4): Linear(in_features=512, out_features=3, bias=True)
  )
  (dropout): Dropout(p=0, inplace=False)
)
ModelDNN_FlexibleLayers(
  (fc_layers): ModuleList(
    (0): Linear(in_features=1920, out_features=2048, bias=True)
    (1): LayerNorm((2048,), eps=1e-05, elementwise_affine=True)
    (2): Linear(in_features=2048, out_features=512, bias=True)
    (3): LayerNorm((512,), eps=1e-05, elementwise_affine=True)
    (4): Linear(in_features=512, out_features=3, bias=True)
  )
  (dropout): Dropout(p=0, inplace=False)
)
ModelDNN_FlexibleLayers(
  (fc_layers): ModuleList(
    (0): Linear(in_features=1920, out_features=2048, bias=True)
    (1): LayerNorm((2048,), eps=1e-05, elementwise_affine=True)
    (2): Linear(in_features=2048, out_features=512, bias=True)
    (3): LayerNorm((512,), eps=1e-05, elementwise_affine=True)
    (4): Linear(in_features=512, out_features=3, bias=True)
  )
  (dropout): Dropout(p=0, inplace=False)
)
ModelDNN_FlexibleLayers(
  (fc_layers): ModuleList(
    (0): Linear(in_features=1920, out_features=2048, bias=True)
    (1): LayerNorm((2048,), eps=1e-05, elementwise_affine=True)
    (2): Linear(in_features=2048, out_features=512, bias=True)
    (3): LayerNorm((512,), eps=1e-05, elementwise_affine=True)
    (4): Linear(in_features=512, out_features=3, bias=True)
  )
  (dropout): Dropout(p=0, inplace=False)
)
ModelDNN_FlexibleLayers(
  (fc_layers): ModuleList(
    (0): Linear(in_features=1920, out_features=2048, bias=True)
    (1): LayerNorm((2048,), eps=1e-05, elementwise_affine=True)
    (2): Linear(in_features=2048, out_features=512, bias=True)
    (3): LayerNorm((512,), eps=1e-05, elementwise_affine=True)
    (4): Linear(in_features=512, out_features=3, bias=True)
  )
  (dropout): Dropout(p=0, inplace=False)
)
ModelDNN_FlexibleLayers(
  (fc_layers): ModuleList(
    (0): Linear(in_features=1920, out_features=2048, bias=True)
    (1): LayerNorm((2048,), eps=1e-05, elementwise_affine=True)
    (2): Linear(in_features=2048, out_features=512, bias=True)
    (3): LayerNorm((512,), eps=1e-05, elementwise_affine=True)
    (4): Linear(in_features=512, out_features=3, bias=True)
  )
  (dropout): Dropout(p=0, inplace=False)
)
ModelDNN_FlexibleLayers(
  (fc_layers): ModuleList(
    (0): Linear(in_features=1920, out_features=2048, bias=True)
    (1): LayerNorm((2048,), eps=1e-05, elementwise_affine=True)
    (2): Linear(in_features=2048, out_features=512, bias=True)
    (3): LayerNorm((512,), eps=1e-05, elementwise_affine=True)
    (4): Linear(in_features=512, out_features=3, bias=True)
  )
  (dropout): Dropout(p=0, inplace=False)
)
ModelDNN_FlexibleLayers(
  (fc_layers): ModuleList(
    (0): Linear(in_features=1920, out_features=2048, bias=True)
    (1): LayerNorm((2048,), eps=1e-05, elementwise_affine=True)
    (2): Linear(in_features=2048, out_features=512, bias=True)
    (3): LayerNorm((512,), eps=1e-05, elementwise_affine=True)
    (4): Linear(in_features=512, out_features=3, bias=True)
  )
  (dropout): Dropout(p=0, inplace=False)
)
ModelDNN_FlexibleLayers(
  (fc_layers): ModuleList(
    (0): Linear(in_features=1920, out_features=2048, bias=True)
    (1): LayerNorm((2048,), eps=1e-05, elementwise_affine=True)
    (2): Linear(in_features=2048, out_features=512, bias=True)
    (3): LayerNorm((512,), eps=1e-05, elementwise_affine=True)
    (4): Linear(in_features=512, out_features=3, bias=True)
  )
  (dropout): Dropout(p=0, inplace=False)
)
ModelDNN_FlexibleLayers(
  (fc_layers): ModuleList(
    (0): Linear(in_features=1920, out_features=2048, bias=True)
    (1): LayerNorm((2048,), eps=1e-05, elementwise_affine=True)
    (2): Linear(in_features=2048, out_features=512, bias=True)
    (3): LayerNorm((512,), eps=1e-05, elementwise_affine=True)
    (4): Linear(in_features=512, out_features=3, bias=True)
  )
  (dropout): Dropout(p=0, inplace=False)
)
ModelDNN_FlexibleLayers(
  (fc_layers): ModuleList(
    (0): Linear(in_features=1920, out_features=2048, bias=True)
    (1): LayerNorm((2048,), eps=1e-05, elementwise_affine=True)
    (2): Linear(in_features=2048, out_features=512, bias=True)
    (3): LayerNorm((512,), eps=1e-05, elementwise_affine=True)
    (4): Linear(in_features=512, out_features=3, bias=True)
  )
  (dropout): Dropout(p=0, inplace=False)
)
ModelDNN_FlexibleLayers(
  (fc_layers): ModuleList(
    (0): Linear(in_features=1920, out_features=2048, bias=True)
    (1): LayerNorm((2048,), eps=1e-05, elementwise_affine=True)
    (2): Linear(in_features=2048, out_features=512, bias=True)
    (3): LayerNorm((512,), eps=1e-05, elementwise_affine=True)
    (4): Linear(in_features=512, out_features=3, bias=True)
  )
  (dropout): Dropout(p=0, inplace=False)
)
ModelDNN_FlexibleLayers(
  (fc_layers): ModuleList(
    (0): Linear(in_features=1920, out_features=2048, bias=True)
    (1): LayerNorm((2048,), eps=1e-05, elementwise_affine=True)
    (2): Linear(in_features=2048, out_features=512, bias=True)
    (3): LayerNorm((512,), eps=1e-05, elementwise_affine=True)
    (4): Linear(in_features=512, out_features=3, bias=True)
  )
  (dropout): Dropout(p=0, inplace=False)
)
ModelDNN_FlexibleLayers(
  (fc_layers): ModuleList(
    (0): Linear(in_features=1920, out_features=2048, bias=True)
    (1): LayerNorm((2048,), eps=1e-05, elementwise_affine=True)
    (2): Linear(in_features=2048, out_features=512, bias=True)
    (3): LayerNorm((512,), eps=1e-05, elementwise_affine=True)
    (4): Linear(in_features=512, out_features=3, bias=True)
  )
  (dropout): Dropout(p=0, inplace=False)
)
ModelDNN_FlexibleLayers(
  (fc_layers): ModuleList(
    (0): Linear(in_features=1920, out_features=2048, bias=True)
    (1): LayerNorm((2048,), eps=1e-05, elementwise_affine=True)
    (2): Linear(in_features=2048, out_features=512, bias=True)
    (3): LayerNorm((512,), eps=1e-05, elementwise_affine=True)
    (4): Linear(in_features=512, out_features=3, bias=True)
  )
  (dropout): Dropout(p=0, inplace=False)
)
ModelDNN_FlexibleLayers(
  (fc_layers): ModuleList(
    (0): Linear(in_features=1920, out_features=2048, bias=True)
    (1): LayerNorm((2048,), eps=1e-05, elementwise_affine=True)
    (2): Linear(in_features=2048, out_features=512, bias=True)
    (3): LayerNorm((512,), eps=1e-05, elementwise_affine=True)
    (4): Linear(in_features=512, out_features=3, bias=True)
  )
  (dropout): Dropout(p=0, inplace=False)
)
ModelDNN_FlexibleLayers(
  (fc_layers): ModuleList(
    (0): Linear(in_features=1920, out_features=2048, bias=True)
    (1): LayerNorm((2048,), eps=1e-05, elementwise_affine=True)
    (2): Linear(in_features=2048, out_features=512, bias=True)
    (3): LayerNorm((512,), eps=1e-05, elementwise_affine=True)
    (4): Linear(in_features=512, out_features=3, bias=True)
  )
  (dropout): Dropout(p=0, inplace=False)
)
ModelDNN_FlexibleLayers(
  (fc_layers): ModuleList(
    (0): Linear(in_features=1920, out_features=2048, bias=True)
    (1): LayerNorm((2048,), eps=1e-05, elementwise_affine=True)
    (2): Linear(in_features=2048, out_features=512, bias=True)
    (3): LayerNorm((512,), eps=1e-05, elementwise_affine=True)
    (4): Linear(in_features=512, out_features=3, bias=True)
  )
  (dropout): Dropout(p=0, inplace=False)
)
ModelDNN_FlexibleLayers(
  (fc_layers): ModuleList(
    (0): Linear(in_features=1920, out_features=2048, bias=True)
    (1): LayerNorm((2048,), eps=1e-05, elementwise_affine=True)
    (2): Linear(in_features=2048, out_features=512, bias=True)
    (3): LayerNorm((512,), eps=1e-05, elementwise_affine=True)
    (4): Linear(in_features=512, out_features=3, bias=True)
  )
  (dropout): Dropout(p=0, inplace=False)
)
ModelDNN_FlexibleLayers(
  (fc_layers): ModuleList(
    (0): Linear(in_features=1920, out_features=2048, bias=True)
    (1): LayerNorm((2048,), eps=1e-05, elementwise_affine=True)
    (2): Linear(in_features=2048, out_features=512, bias=True)
    (3): LayerNorm((512,), eps=1e-05, elementwise_affine=True)
    (4): Linear(in_features=512, out_features=3, bias=True)
  )
  (dropout): Dropout(p=0, inplace=False)
)
ModelDNN_FlexibleLayers(
  (fc_layers): ModuleList(
    (0): Linear(in_features=1920, out_features=2048, bias=True)
    (1): LayerNorm((2048,), eps=1e-05, elementwise_affine=True)
    (2): Linear(in_features=2048, out_features=512, bias=True)
    (3): LayerNorm((512,), eps=1e-05, elementwise_affine=True)
    (4): Linear(in_features=512, out_features=3, bias=True)
  )
  (dropout): Dropout(p=0, inplace=False)
)
ModelDNN_FlexibleLayers(
  (fc_layers): ModuleList(
    (0): Linear(in_features=1920, out_features=2048, bias=True)
    (1): LayerNorm((2048,), eps=1e-05, elementwise_affine=True)
    (2): Linear(in_features=2048, out_features=512, bias=True)
    (3): LayerNorm((512,), eps=1e-05, elementwise_affine=True)
    (4): Linear(in_features=512, out_features=3, bias=True)
  )
  (dropout): Dropout(p=0, inplace=False)
)
ModelLeNet(
  (cnn_layers): ModuleList(
    (0): Conv1d(30, 30, kernel_size=(5,), stride=(1,), padding=(2,), groups=30)
    (1): LayerNorm((30, 64), eps=1e-05, elementwise_affine=True)
    (2): MaxPool1d(kernel_size=2, stride=2, padding=0, dilation=1, ceil_mode=False)
    (3): Conv1d(30, 30, kernel_size=(5,), stride=(1,), padding=(2,), groups=30)
    (4): LayerNorm((30, 64), eps=1e-05, elementwise_affine=True)
    (5): MaxPool1d(kernel_size=2, stride=2, padding=0, dilation=1, ceil_mode=False)
    (6): Conv1d(30, 30, kernel_size=(5,), stride=(1,), padding=(2,), groups=30)
    (7): LayerNorm((30, 64), eps=1e-05, elementwise_affine=True)
    (8): MaxPool1d(kernel_size=2, stride=2, padding=0, dilation=1, ceil_mode=False)
  )
  (fc_layers): ModuleList(
    (0): Linear(in_features=240, out_features=2048, bias=True)
    (1): LayerNorm((2048,), eps=1e-05, elementwise_affine=True)
    (2): Linear(in_features=2048, out_features=512, bias=True)
    (3): LayerNorm((512,), eps=1e-05, elementwise_affine=True)
    (4): Linear(in_features=512, out_features=3, bias=True)
  )
  (dropout): Dropout(p=0, inplace=False)
)
ModelCNN_LSTM(
  (conv1): Conv1d(30, 30, kernel_size=(3,), stride=(1,), padding=(1,), groups=30)
  (conv2): Conv1d(30, 30, kernel_size=(3,), stride=(1,), padding=(1,), groups=30)
  (convs): Sequential(
    (0): Conv1d(30, 30, kernel_size=(3,), stride=(1,), padding=(1,), groups=30)
    (1): LayerNorm((30, 64), eps=1e-05, elementwise_affine=True)
    (2): ReLU()
    (3): MaxPool1d(kernel_size=2, stride=2, padding=0, dilation=1, ceil_mode=False)
    (4): Conv1d(30, 30, kernel_size=(3,), stride=(1,), padding=(1,), groups=30)
    (5): LayerNorm((30, 32), eps=1e-05, elementwise_affine=True)
    (6): ReLU()
    (7): MaxPool1d(kernel_size=2, stride=2, padding=0, dilation=1, ceil_mode=False)
  )
  (lstm): LSTM(30, 30, num_layers=3, batch_first=True)
  (fc_layers): ModuleList(
    (0): Linear(in_features=480, out_features=2048, bias=True)
    (1): LayerNorm((2048,), eps=1e-05, elementwise_affine=True)
    (2): Linear(in_features=2048, out_features=512, bias=True)
    (3): LayerNorm((512,), eps=1e-05, elementwise_affine=True)
    (4): Linear(in_features=512, out_features=3, bias=True)
    (5): LayerNorm((3,), eps=1e-05, elementwise_affine=True)
    (6): Linear(in_features=3, out_features=3, bias=True)
  )
  (dropout): Dropout(p=0, inplace=False)
)
ModelLeNet(
  (cnn_layers): ModuleList(
    (0): Conv1d(30, 30, kernel_size=(5,), stride=(1,), padding=(2,), groups=30)
    (1): LayerNorm((30, 64), eps=1e-05, elementwise_affine=True)
    (2): MaxPool1d(kernel_size=2, stride=2, padding=0, dilation=1, ceil_mode=False)
    (3): Conv1d(30, 30, kernel_size=(5,), stride=(1,), padding=(2,), groups=30)
    (4): LayerNorm((30, 64), eps=1e-05, elementwise_affine=True)
    (5): MaxPool1d(kernel_size=2, stride=2, padding=0, dilation=1, ceil_mode=False)
    (6): Conv1d(30, 30, kernel_size=(5,), stride=(1,), padding=(2,), groups=30)
    (7): LayerNorm((30, 64), eps=1e-05, elementwise_affine=True)
    (8): MaxPool1d(kernel_size=2, stride=2, padding=0, dilation=1, ceil_mode=False)
  )
  (fc_layers): ModuleList(
    (0): Linear(in_features=240, out_features=2048, bias=True)
    (1): LayerNorm((2048,), eps=1e-05, elementwise_affine=True)
    (2): Linear(in_features=2048, out_features=512, bias=True)
    (3): LayerNorm((512,), eps=1e-05, elementwise_affine=True)
    (4): Linear(in_features=512, out_features=3, bias=True)
  )
  (dropout): Dropout(p=0, inplace=False)
)
ModelCNN_LSTM(
  (conv1): Conv1d(30, 30, kernel_size=(3,), stride=(1,), padding=(1,), groups=30)
  (conv2): Conv1d(30, 30, kernel_size=(3,), stride=(1,), padding=(1,), groups=30)
  (convs): Sequential(
    (0): Conv1d(30, 30, kernel_size=(3,), stride=(1,), padding=(1,), groups=30)
    (1): LayerNorm((30, 64), eps=1e-05, elementwise_affine=True)
    (2): ReLU()
    (3): MaxPool1d(kernel_size=2, stride=2, padding=0, dilation=1, ceil_mode=False)
    (4): Conv1d(30, 30, kernel_size=(3,), stride=(1,), padding=(1,), groups=30)
    (5): LayerNorm((30, 32), eps=1e-05, elementwise_affine=True)
    (6): ReLU()
    (7): MaxPool1d(kernel_size=2, stride=2, padding=0, dilation=1, ceil_mode=False)
  )
  (lstm): LSTM(30, 30, batch_first=True)
  (fc_layers): ModuleList(
    (0): Linear(in_features=480, out_features=256, bias=True)
    (1): LayerNorm((256,), eps=1e-05, elementwise_affine=True)
    (2): Linear(in_features=256, out_features=64, bias=True)
    (3): LayerNorm((64,), eps=1e-05, elementwise_affine=True)
    (4): Linear(in_features=64, out_features=3, bias=True)
    (5): LayerNorm((3,), eps=1e-05, elementwise_affine=True)
    (6): Linear(in_features=3, out_features=3, bias=True)
  )
  (dropout): Dropout(p=0, inplace=False)
)
ModelDNN_FlexibleLayers(
  (fc_layers): ModuleList(
    (0): Linear(in_features=1920, out_features=2048, bias=True)
    (1): LayerNorm((2048,), eps=1e-05, elementwise_affine=True)
    (2): Linear(in_features=2048, out_features=512, bias=True)
    (3): LayerNorm((512,), eps=1e-05, elementwise_affine=True)
    (4): Linear(in_features=512, out_features=3, bias=True)
  )
  (dropout): Dropout(p=0, inplace=False)
)
ModelDNN_FlexibleLayers(
  (fc_layers): ModuleList(
    (0): Linear(in_features=1920, out_features=2048, bias=True)
    (1): LayerNorm((2048,), eps=1e-05, elementwise_affine=True)
    (2): Linear(in_features=2048, out_features=512, bias=True)
    (3): LayerNorm((512,), eps=1e-05, elementwise_affine=True)
    (4): Linear(in_features=512, out_features=3, bias=True)
  )
  (dropout): Dropout(p=0, inplace=False)
)
ModelLeNet(
  (cnn_layers): ModuleList(
    (0): Conv1d(30, 30, kernel_size=(5,), stride=(1,), padding=(2,), groups=30)
    (1): LayerNorm((30, 64), eps=1e-05, elementwise_affine=True)
    (2): MaxPool1d(kernel_size=2, stride=2, padding=0, dilation=1, ceil_mode=False)
    (3): Conv1d(30, 30, kernel_size=(5,), stride=(1,), padding=(2,), groups=30)
    (4): LayerNorm((30, 64), eps=1e-05, elementwise_affine=True)
    (5): MaxPool1d(kernel_size=2, stride=2, padding=0, dilation=1, ceil_mode=False)
    (6): Conv1d(30, 30, kernel_size=(5,), stride=(1,), padding=(2,), groups=30)
    (7): LayerNorm((30, 64), eps=1e-05, elementwise_affine=True)
    (8): MaxPool1d(kernel_size=2, stride=2, padding=0, dilation=1, ceil_mode=False)
  )
  (fc_layers): ModuleList(
    (0): Linear(in_features=240, out_features=2048, bias=True)
    (1): LayerNorm((2048,), eps=1e-05, elementwise_affine=True)
    (2): Linear(in_features=2048, out_features=512, bias=True)
    (3): LayerNorm((512,), eps=1e-05, elementwise_affine=True)
    (4): Linear(in_features=512, out_features=3, bias=True)
  )
  (dropout): Dropout(p=0, inplace=False)
)
ModelDNN_FlexibleLayers(
  (fc_layers): ModuleList(
    (0): Linear(in_features=1920, out_features=2048, bias=True)
    (1): LayerNorm((2048,), eps=1e-05, elementwise_affine=True)
    (2): Linear(in_features=2048, out_features=512, bias=True)
    (3): LayerNorm((512,), eps=1e-05, elementwise_affine=True)
    (4): Linear(in_features=512, out_features=3, bias=True)
  )
  (dropout): Dropout(p=0, inplace=False)
)
ModelLeNet(
  (cnn_layers): ModuleList(
    (0): Conv1d(30, 30, kernel_size=(5,), stride=(1,), padding=(2,), groups=30)
    (1): LayerNorm((30, 64), eps=1e-05, elementwise_affine=True)
    (2): MaxPool1d(kernel_size=2, stride=2, padding=0, dilation=1, ceil_mode=False)
    (3): Conv1d(30, 30, kernel_size=(5,), stride=(1,), padding=(2,), groups=30)
    (4): LayerNorm((30, 64), eps=1e-05, elementwise_affine=True)
    (5): MaxPool1d(kernel_size=2, stride=2, padding=0, dilation=1, ceil_mode=False)
    (6): Conv1d(30, 30, kernel_size=(5,), stride=(1,), padding=(2,), groups=30)
    (7): LayerNorm((30, 64), eps=1e-05, elementwise_affine=True)
    (8): MaxPool1d(kernel_size=2, stride=2, padding=0, dilation=1, ceil_mode=False)
  )
  (fc_layers): ModuleList(
    (0): Linear(in_features=240, out_features=2048, bias=True)
    (1): LayerNorm((2048,), eps=1e-05, elementwise_affine=True)
    (2): Linear(in_features=2048, out_features=512, bias=True)
    (3): LayerNorm((512,), eps=1e-05, elementwise_affine=True)
    (4): Linear(in_features=512, out_features=3, bias=True)
  )
  (dropout): Dropout(p=0, inplace=False)
)
ModelDNN_FlexibleLayers(
  (fc_layers): ModuleList(
    (0): Linear(in_features=1920, out_features=2048, bias=True)
    (1): LayerNorm((2048,), eps=1e-05, elementwise_affine=True)
    (2): Linear(in_features=2048, out_features=512, bias=True)
    (3): LayerNorm((512,), eps=1e-05, elementwise_affine=True)
    (4): Linear(in_features=512, out_features=3, bias=True)
  )
  (dropout): Dropout(p=0, inplace=False)
)
ModelLeNet(
  (cnn_layers): ModuleList(
    (0): Conv1d(30, 30, kernel_size=(5,), stride=(1,), padding=(2,), groups=30)
    (1): LayerNorm((30, 64), eps=1e-05, elementwise_affine=True)
    (2): MaxPool1d(kernel_size=2, stride=2, padding=0, dilation=1, ceil_mode=False)
    (3): Conv1d(30, 30, kernel_size=(5,), stride=(1,), padding=(2,), groups=30)
    (4): LayerNorm((30, 64), eps=1e-05, elementwise_affine=True)
    (5): MaxPool1d(kernel_size=2, stride=2, padding=0, dilation=1, ceil_mode=False)
    (6): Conv1d(30, 30, kernel_size=(5,), stride=(1,), padding=(2,), groups=30)
    (7): LayerNorm((30, 64), eps=1e-05, elementwise_affine=True)
    (8): MaxPool1d(kernel_size=2, stride=2, padding=0, dilation=1, ceil_mode=False)
  )
  (fc_layers): ModuleList(
    (0): Linear(in_features=240, out_features=2048, bias=True)
    (1): LayerNorm((2048,), eps=1e-05, elementwise_affine=True)
    (2): Linear(in_features=2048, out_features=512, bias=True)
    (3): LayerNorm((512,), eps=1e-05, elementwise_affine=True)
    (4): Linear(in_features=512, out_features=3, bias=True)
  )
  (dropout): Dropout(p=0, inplace=False)
)
ModelDNN_FlexibleLayers(
  (fc_layers): ModuleList(
    (0): Linear(in_features=1920, out_features=2048, bias=True)
    (1): LayerNorm((2048,), eps=1e-05, elementwise_affine=True)
    (2): Linear(in_features=2048, out_features=512, bias=True)
    (3): LayerNorm((512,), eps=1e-05, elementwise_affine=True)
    (4): Linear(in_features=512, out_features=3, bias=True)
  )
  (dropout): Dropout(p=0, inplace=False)
)
ModelLeNet(
  (cnn_layers): ModuleList(
    (0): Conv1d(30, 30, kernel_size=(5,), stride=(1,), padding=(2,), groups=30)
    (1): LayerNorm((30, 64), eps=1e-05, elementwise_affine=True)
    (2): MaxPool1d(kernel_size=2, stride=2, padding=0, dilation=1, ceil_mode=False)
    (3): Conv1d(30, 30, kernel_size=(5,), stride=(1,), padding=(2,), groups=30)
    (4): LayerNorm((30, 64), eps=1e-05, elementwise_affine=True)
    (5): MaxPool1d(kernel_size=2, stride=2, padding=0, dilation=1, ceil_mode=False)
    (6): Conv1d(30, 30, kernel_size=(5,), stride=(1,), padding=(2,), groups=30)
    (7): LayerNorm((30, 64), eps=1e-05, elementwise_affine=True)
    (8): MaxPool1d(kernel_size=2, stride=2, padding=0, dilation=1, ceil_mode=False)
  )
  (fc_layers): ModuleList(
    (0): Linear(in_features=240, out_features=2048, bias=True)
    (1): LayerNorm((2048,), eps=1e-05, elementwise_affine=True)
    (2): Linear(in_features=2048, out_features=512, bias=True)
    (3): LayerNorm((512,), eps=1e-05, elementwise_affine=True)
    (4): Linear(in_features=512, out_features=3, bias=True)
  )
  (dropout): Dropout(p=0, inplace=False)
)
ModelDNN_FlexibleLayers(
  (fc_layers): ModuleList(
    (0): Linear(in_features=1920, out_features=2048, bias=True)
    (1): LayerNorm((2048,), eps=1e-05, elementwise_affine=True)
    (2): Linear(in_features=2048, out_features=512, bias=True)
    (3): LayerNorm((512,), eps=1e-05, elementwise_affine=True)
    (4): Linear(in_features=512, out_features=3, bias=True)
  )
  (dropout): Dropout(p=0, inplace=False)
)
ModelLeNet(
  (cnn_layers): ModuleList(
    (0): Conv1d(30, 30, kernel_size=(5,), stride=(1,), padding=(2,), groups=30)
    (1): LayerNorm((30, 64), eps=1e-05, elementwise_affine=True)
    (2): MaxPool1d(kernel_size=2, stride=2, padding=0, dilation=1, ceil_mode=False)
    (3): Conv1d(30, 30, kernel_size=(5,), stride=(1,), padding=(2,), groups=30)
    (4): LayerNorm((30, 64), eps=1e-05, elementwise_affine=True)
    (5): MaxPool1d(kernel_size=2, stride=2, padding=0, dilation=1, ceil_mode=False)
    (6): Conv1d(30, 30, kernel_size=(5,), stride=(1,), padding=(2,), groups=30)
    (7): LayerNorm((30, 64), eps=1e-05, elementwise_affine=True)
    (8): MaxPool1d(kernel_size=2, stride=2, padding=0, dilation=1, ceil_mode=False)
  )
  (fc_layers): ModuleList(
    (0): Linear(in_features=240, out_features=2048, bias=True)
    (1): LayerNorm((2048,), eps=1e-05, elementwise_affine=True)
    (2): Linear(in_features=2048, out_features=512, bias=True)
    (3): LayerNorm((512,), eps=1e-05, elementwise_affine=True)
    (4): Linear(in_features=512, out_features=3, bias=True)
  )
  (dropout): Dropout(p=0, inplace=False)
)
ModelDNN_FlexibleLayers(
  (fc_layers): ModuleList(
    (0): Linear(in_features=1920, out_features=2048, bias=True)
    (1): LayerNorm((2048,), eps=1e-05, elementwise_affine=True)
    (2): Linear(in_features=2048, out_features=512, bias=True)
    (3): LayerNorm((512,), eps=1e-05, elementwise_affine=True)
    (4): Linear(in_features=512, out_features=3, bias=True)
  )
  (dropout): Dropout(p=0, inplace=False)
)
ModelLeNet(
  (cnn_layers): ModuleList(
    (0): Conv1d(30, 30, kernel_size=(5,), stride=(1,), padding=(2,), groups=30)
    (1): LayerNorm((30, 64), eps=1e-05, elementwise_affine=True)
    (2): MaxPool1d(kernel_size=2, stride=2, padding=0, dilation=1, ceil_mode=False)
    (3): Conv1d(30, 30, kernel_size=(5,), stride=(1,), padding=(2,), groups=30)
    (4): LayerNorm((30, 64), eps=1e-05, elementwise_affine=True)
    (5): MaxPool1d(kernel_size=2, stride=2, padding=0, dilation=1, ceil_mode=False)
    (6): Conv1d(30, 30, kernel_size=(5,), stride=(1,), padding=(2,), groups=30)
    (7): LayerNorm((30, 64), eps=1e-05, elementwise_affine=True)
    (8): MaxPool1d(kernel_size=2, stride=2, padding=0, dilation=1, ceil_mode=False)
  )
  (fc_layers): ModuleList(
    (0): Linear(in_features=240, out_features=2048, bias=True)
    (1): LayerNorm((2048,), eps=1e-05, elementwise_affine=True)
    (2): Linear(in_features=2048, out_features=512, bias=True)
    (3): LayerNorm((512,), eps=1e-05, elementwise_affine=True)
    (4): Linear(in_features=512, out_features=3, bias=True)
  )
  (dropout): Dropout(p=0, inplace=False)
)
ModelDNN_FlexibleLayers(
  (fc_layers): ModuleList(
    (0): Linear(in_features=1920, out_features=2048, bias=True)
    (1): LayerNorm((2048,), eps=1e-05, elementwise_affine=True)
    (2): Linear(in_features=2048, out_features=512, bias=True)
    (3): LayerNorm((512,), eps=1e-05, elementwise_affine=True)
    (4): Linear(in_features=512, out_features=3, bias=True)
  )
  (dropout): Dropout(p=0, inplace=False)
)
ModelLeNet(
  (cnn_layers): ModuleList(
    (0): Conv1d(30, 30, kernel_size=(5,), stride=(1,), padding=(2,), groups=30)
    (1): LayerNorm((30, 64), eps=1e-05, elementwise_affine=True)
    (2): MaxPool1d(kernel_size=2, stride=2, padding=0, dilation=1, ceil_mode=False)
    (3): Conv1d(30, 30, kernel_size=(5,), stride=(1,), padding=(2,), groups=30)
    (4): LayerNorm((30, 64), eps=1e-05, elementwise_affine=True)
    (5): MaxPool1d(kernel_size=2, stride=2, padding=0, dilation=1, ceil_mode=False)
    (6): Conv1d(30, 30, kernel_size=(5,), stride=(1,), padding=(2,), groups=30)
    (7): LayerNorm((30, 64), eps=1e-05, elementwise_affine=True)
    (8): MaxPool1d(kernel_size=2, stride=2, padding=0, dilation=1, ceil_mode=False)
  )
  (fc_layers): ModuleList(
    (0): Linear(in_features=240, out_features=2048, bias=True)
    (1): LayerNorm((2048,), eps=1e-05, elementwise_affine=True)
    (2): Linear(in_features=2048, out_features=512, bias=True)
    (3): LayerNorm((512,), eps=1e-05, elementwise_affine=True)
    (4): Linear(in_features=512, out_features=3, bias=True)
  )
  (dropout): Dropout(p=0, inplace=False)
)
ModelDNN_FlexibleLayers(
  (fc_layers): ModuleList(
    (0): Linear(in_features=1920, out_features=2048, bias=True)
    (1): LayerNorm((2048,), eps=1e-05, elementwise_affine=True)
    (2): Linear(in_features=2048, out_features=512, bias=True)
    (3): LayerNorm((512,), eps=1e-05, elementwise_affine=True)
    (4): Linear(in_features=512, out_features=3, bias=True)
  )
  (dropout): Dropout(p=0, inplace=False)
)
ModelLeNet(
  (cnn_layers): ModuleList(
    (0): Conv1d(30, 30, kernel_size=(5,), stride=(1,), padding=(2,), groups=30)
    (1): LayerNorm((30, 64), eps=1e-05, elementwise_affine=True)
    (2): MaxPool1d(kernel_size=2, stride=2, padding=0, dilation=1, ceil_mode=False)
    (3): Conv1d(30, 30, kernel_size=(5,), stride=(1,), padding=(2,), groups=30)
    (4): LayerNorm((30, 64), eps=1e-05, elementwise_affine=True)
    (5): MaxPool1d(kernel_size=2, stride=2, padding=0, dilation=1, ceil_mode=False)
    (6): Conv1d(30, 30, kernel_size=(5,), stride=(1,), padding=(2,), groups=30)
    (7): LayerNorm((30, 64), eps=1e-05, elementwise_affine=True)
    (8): MaxPool1d(kernel_size=2, stride=2, padding=0, dilation=1, ceil_mode=False)
  )
  (fc_layers): ModuleList(
    (0): Linear(in_features=240, out_features=2048, bias=True)
    (1): LayerNorm((2048,), eps=1e-05, elementwise_affine=True)
    (2): Linear(in_features=2048, out_features=512, bias=True)
    (3): LayerNorm((512,), eps=1e-05, elementwise_affine=True)
    (4): Linear(in_features=512, out_features=3, bias=True)
  )
  (dropout): Dropout(p=0, inplace=False)
)
ModelDNN_FlexibleLayers(
  (fc_layers): ModuleList(
    (0): Linear(in_features=1920, out_features=2048, bias=True)
    (1): LayerNorm((2048,), eps=1e-05, elementwise_affine=True)
    (2): Linear(in_features=2048, out_features=512, bias=True)
    (3): LayerNorm((512,), eps=1e-05, elementwise_affine=True)
    (4): Linear(in_features=512, out_features=3, bias=True)
  )
  (dropout): Dropout(p=0, inplace=False)
)
ModelLeNet(
  (cnn_layers): ModuleList(
    (0): Conv1d(30, 30, kernel_size=(5,), stride=(1,), padding=(2,), groups=30)
    (1): LayerNorm((30, 64), eps=1e-05, elementwise_affine=True)
    (2): MaxPool1d(kernel_size=2, stride=2, padding=0, dilation=1, ceil_mode=False)
    (3): Conv1d(30, 30, kernel_size=(5,), stride=(1,), padding=(2,), groups=30)
    (4): LayerNorm((30, 64), eps=1e-05, elementwise_affine=True)
    (5): MaxPool1d(kernel_size=2, stride=2, padding=0, dilation=1, ceil_mode=False)
    (6): Conv1d(30, 30, kernel_size=(5,), stride=(1,), padding=(2,), groups=30)
    (7): LayerNorm((30, 64), eps=1e-05, elementwise_affine=True)
    (8): MaxPool1d(kernel_size=2, stride=2, padding=0, dilation=1, ceil_mode=False)
  )
  (fc_layers): ModuleList(
    (0): Linear(in_features=240, out_features=2048, bias=True)
    (1): LayerNorm((2048,), eps=1e-05, elementwise_affine=True)
    (2): Linear(in_features=2048, out_features=512, bias=True)
    (3): LayerNorm((512,), eps=1e-05, elementwise_affine=True)
    (4): Linear(in_features=512, out_features=3, bias=True)
  )
  (dropout): Dropout(p=0, inplace=False)
)
ModelDNN_FlexibleLayers(
  (fc_layers): ModuleList(
    (0): Linear(in_features=1920, out_features=2048, bias=True)
    (1): LayerNorm((2048,), eps=1e-05, elementwise_affine=True)
    (2): Linear(in_features=2048, out_features=512, bias=True)
    (3): LayerNorm((512,), eps=1e-05, elementwise_affine=True)
    (4): Linear(in_features=512, out_features=3, bias=True)
  )
  (dropout): Dropout(p=0, inplace=False)
)
ModelLeNet(
  (cnn_layers): ModuleList(
    (0): Conv1d(30, 30, kernel_size=(5,), stride=(1,), padding=(2,), groups=30)
    (1): LayerNorm((30, 64), eps=1e-05, elementwise_affine=True)
    (2): MaxPool1d(kernel_size=2, stride=2, padding=0, dilation=1, ceil_mode=False)
    (3): Conv1d(30, 30, kernel_size=(5,), stride=(1,), padding=(2,), groups=30)
    (4): LayerNorm((30, 64), eps=1e-05, elementwise_affine=True)
    (5): MaxPool1d(kernel_size=2, stride=2, padding=0, dilation=1, ceil_mode=False)
    (6): Conv1d(30, 30, kernel_size=(5,), stride=(1,), padding=(2,), groups=30)
    (7): LayerNorm((30, 64), eps=1e-05, elementwise_affine=True)
    (8): MaxPool1d(kernel_size=2, stride=2, padding=0, dilation=1, ceil_mode=False)
  )
  (fc_layers): ModuleList(
    (0): Linear(in_features=240, out_features=2048, bias=True)
    (1): LayerNorm((2048,), eps=1e-05, elementwise_affine=True)
    (2): Linear(in_features=2048, out_features=512, bias=True)
    (3): LayerNorm((512,), eps=1e-05, elementwise_affine=True)
    (4): Linear(in_features=512, out_features=3, bias=True)
  )
  (dropout): Dropout(p=0, inplace=False)
)
ModelDNN_FlexibleLayers(
  (fc_layers): ModuleList(
    (0): Linear(in_features=1920, out_features=2048, bias=True)
    (1): LayerNorm((2048,), eps=1e-05, elementwise_affine=True)
    (2): Linear(in_features=2048, out_features=512, bias=True)
    (3): LayerNorm((512,), eps=1e-05, elementwise_affine=True)
    (4): Linear(in_features=512, out_features=3, bias=True)
  )
  (dropout): Dropout(p=0, inplace=False)
)
ModelLeNet(
  (cnn_layers): ModuleList(
    (0): Conv1d(30, 30, kernel_size=(5,), stride=(1,), padding=(2,), groups=30)
    (1): LayerNorm((30, 64), eps=1e-05, elementwise_affine=True)
    (2): MaxPool1d(kernel_size=2, stride=2, padding=0, dilation=1, ceil_mode=False)
    (3): Conv1d(30, 30, kernel_size=(5,), stride=(1,), padding=(2,), groups=30)
    (4): LayerNorm((30, 64), eps=1e-05, elementwise_affine=True)
    (5): MaxPool1d(kernel_size=2, stride=2, padding=0, dilation=1, ceil_mode=False)
    (6): Conv1d(30, 30, kernel_size=(5,), stride=(1,), padding=(2,), groups=30)
    (7): LayerNorm((30, 64), eps=1e-05, elementwise_affine=True)
    (8): MaxPool1d(kernel_size=2, stride=2, padding=0, dilation=1, ceil_mode=False)
  )
  (fc_layers): ModuleList(
    (0): Linear(in_features=240, out_features=2048, bias=True)
    (1): LayerNorm((2048,), eps=1e-05, elementwise_affine=True)
    (2): Linear(in_features=2048, out_features=512, bias=True)
    (3): LayerNorm((512,), eps=1e-05, elementwise_affine=True)
    (4): Linear(in_features=512, out_features=3, bias=True)
  )
  (dropout): Dropout(p=0, inplace=False)
)
ModelDNN_FlexibleLayers(
  (fc_layers): ModuleList(
    (0): Linear(in_features=1920, out_features=2048, bias=True)
    (1): LayerNorm((2048,), eps=1e-05, elementwise_affine=True)
    (2): Linear(in_features=2048, out_features=512, bias=True)
    (3): LayerNorm((512,), eps=1e-05, elementwise_affine=True)
    (4): Linear(in_features=512, out_features=3, bias=True)
  )
  (dropout): Dropout(p=0, inplace=False)
)
ModelLeNet(
  (cnn_layers): ModuleList(
    (0): Conv1d(30, 30, kernel_size=(5,), stride=(1,), padding=(2,), groups=30)
    (1): LayerNorm((30, 64), eps=1e-05, elementwise_affine=True)
    (2): MaxPool1d(kernel_size=2, stride=2, padding=0, dilation=1, ceil_mode=False)
    (3): Conv1d(30, 30, kernel_size=(5,), stride=(1,), padding=(2,), groups=30)
    (4): LayerNorm((30, 64), eps=1e-05, elementwise_affine=True)
    (5): MaxPool1d(kernel_size=2, stride=2, padding=0, dilation=1, ceil_mode=False)
    (6): Conv1d(30, 30, kernel_size=(5,), stride=(1,), padding=(2,), groups=30)
    (7): LayerNorm((30, 64), eps=1e-05, elementwise_affine=True)
    (8): MaxPool1d(kernel_size=2, stride=2, padding=0, dilation=1, ceil_mode=False)
  )
  (fc_layers): ModuleList(
    (0): Linear(in_features=240, out_features=2048, bias=True)
    (1): LayerNorm((2048,), eps=1e-05, elementwise_affine=True)
    (2): Linear(in_features=2048, out_features=512, bias=True)
    (3): LayerNorm((512,), eps=1e-05, elementwise_affine=True)
    (4): Linear(in_features=512, out_features=3, bias=True)
  )
  (dropout): Dropout(p=0, inplace=False)
)
ModelDNN_FlexibleLayers(
  (fc_layers): ModuleList(
    (0): Linear(in_features=1920, out_features=2048, bias=True)
    (1): LayerNorm((2048,), eps=1e-05, elementwise_affine=True)
    (2): Linear(in_features=2048, out_features=512, bias=True)
    (3): LayerNorm((512,), eps=1e-05, elementwise_affine=True)
    (4): Linear(in_features=512, out_features=3, bias=True)
  )
  (dropout): Dropout(p=0, inplace=False)
)
ModelLeNet(
  (cnn_layers): ModuleList(
    (0): Conv1d(30, 30, kernel_size=(5,), stride=(1,), padding=(2,), groups=30)
    (1): LayerNorm((30, 64), eps=1e-05, elementwise_affine=True)
    (2): MaxPool1d(kernel_size=2, stride=2, padding=0, dilation=1, ceil_mode=False)
    (3): Conv1d(30, 30, kernel_size=(5,), stride=(1,), padding=(2,), groups=30)
    (4): LayerNorm((30, 64), eps=1e-05, elementwise_affine=True)
    (5): MaxPool1d(kernel_size=2, stride=2, padding=0, dilation=1, ceil_mode=False)
    (6): Conv1d(30, 30, kernel_size=(5,), stride=(1,), padding=(2,), groups=30)
    (7): LayerNorm((30, 64), eps=1e-05, elementwise_affine=True)
    (8): MaxPool1d(kernel_size=2, stride=2, padding=0, dilation=1, ceil_mode=False)
  )
  (fc_layers): ModuleList(
    (0): Linear(in_features=240, out_features=2048, bias=True)
    (1): LayerNorm((2048,), eps=1e-05, elementwise_affine=True)
    (2): Linear(in_features=2048, out_features=512, bias=True)
    (3): LayerNorm((512,), eps=1e-05, elementwise_affine=True)
    (4): Linear(in_features=512, out_features=3, bias=True)
  )
  (dropout): Dropout(p=0, inplace=False)
)
ModelDNN_FlexibleLayers(
  (fc_layers): ModuleList(
    (0): Linear(in_features=1920, out_features=2048, bias=True)
    (1): LayerNorm((2048,), eps=1e-05, elementwise_affine=True)
    (2): Linear(in_features=2048, out_features=512, bias=True)
    (3): LayerNorm((512,), eps=1e-05, elementwise_affine=True)
    (4): Linear(in_features=512, out_features=3, bias=True)
  )
  (dropout): Dropout(p=0, inplace=False)
)
ModelLeNet(
  (cnn_layers): ModuleList(
    (0): Conv1d(30, 30, kernel_size=(5,), stride=(1,), padding=(2,), groups=30)
    (1): LayerNorm((30, 64), eps=1e-05, elementwise_affine=True)
    (2): MaxPool1d(kernel_size=2, stride=2, padding=0, dilation=1, ceil_mode=False)
    (3): Conv1d(30, 30, kernel_size=(5,), stride=(1,), padding=(2,), groups=30)
    (4): LayerNorm((30, 64), eps=1e-05, elementwise_affine=True)
    (5): MaxPool1d(kernel_size=2, stride=2, padding=0, dilation=1, ceil_mode=False)
    (6): Conv1d(30, 30, kernel_size=(5,), stride=(1,), padding=(2,), groups=30)
    (7): LayerNorm((30, 64), eps=1e-05, elementwise_affine=True)
    (8): MaxPool1d(kernel_size=2, stride=2, padding=0, dilation=1, ceil_mode=False)
  )
  (fc_layers): ModuleList(
    (0): Linear(in_features=240, out_features=2048, bias=True)
    (1): LayerNorm((2048,), eps=1e-05, elementwise_affine=True)
    (2): Linear(in_features=2048, out_features=512, bias=True)
    (3): LayerNorm((512,), eps=1e-05, elementwise_affine=True)
    (4): Linear(in_features=512, out_features=3, bias=True)
  )
  (dropout): Dropout(p=0, inplace=False)
)
ModelDNN_FlexibleLayers(
  (fc_layers): ModuleList(
    (0): Linear(in_features=1920, out_features=2048, bias=True)
    (1): LayerNorm((2048,), eps=1e-05, elementwise_affine=True)
    (2): Linear(in_features=2048, out_features=512, bias=True)
    (3): LayerNorm((512,), eps=1e-05, elementwise_affine=True)
    (4): Linear(in_features=512, out_features=3, bias=True)
  )
  (dropout): Dropout(p=0, inplace=False)
)
ModelLeNet(
  (cnn_layers): ModuleList(
    (0): Conv1d(30, 30, kernel_size=(5,), stride=(1,), padding=(2,), groups=30)
    (1): LayerNorm((30, 64), eps=1e-05, elementwise_affine=True)
    (2): MaxPool1d(kernel_size=2, stride=2, padding=0, dilation=1, ceil_mode=False)
    (3): Conv1d(30, 30, kernel_size=(5,), stride=(1,), padding=(2,), groups=30)
    (4): LayerNorm((30, 64), eps=1e-05, elementwise_affine=True)
    (5): MaxPool1d(kernel_size=2, stride=2, padding=0, dilation=1, ceil_mode=False)
    (6): Conv1d(30, 30, kernel_size=(5,), stride=(1,), padding=(2,), groups=30)
    (7): LayerNorm((30, 64), eps=1e-05, elementwise_affine=True)
    (8): MaxPool1d(kernel_size=2, stride=2, padding=0, dilation=1, ceil_mode=False)
  )
  (fc_layers): ModuleList(
    (0): Linear(in_features=240, out_features=2048, bias=True)
    (1): LayerNorm((2048,), eps=1e-05, elementwise_affine=True)
    (2): Linear(in_features=2048, out_features=512, bias=True)
    (3): LayerNorm((512,), eps=1e-05, elementwise_affine=True)
    (4): Linear(in_features=512, out_features=3, bias=True)
  )
  (dropout): Dropout(p=0, inplace=False)
)
ModelDNN_FlexibleLayers(
  (fc_layers): ModuleList(
    (0): Linear(in_features=1920, out_features=2048, bias=True)
    (1): LayerNorm((2048,), eps=1e-05, elementwise_affine=True)
    (2): Linear(in_features=2048, out_features=512, bias=True)
    (3): LayerNorm((512,), eps=1e-05, elementwise_affine=True)
    (4): Linear(in_features=512, out_features=3, bias=True)
  )
  (dropout): Dropout(p=0, inplace=False)
)
ModelLeNet(
  (cnn_layers): ModuleList(
    (0): Conv1d(30, 30, kernel_size=(5,), stride=(1,), padding=(2,), groups=30)
    (1): LayerNorm((30, 64), eps=1e-05, elementwise_affine=True)
    (2): MaxPool1d(kernel_size=2, stride=2, padding=0, dilation=1, ceil_mode=False)
    (3): Conv1d(30, 30, kernel_size=(5,), stride=(1,), padding=(2,), groups=30)
    (4): LayerNorm((30, 64), eps=1e-05, elementwise_affine=True)
    (5): MaxPool1d(kernel_size=2, stride=2, padding=0, dilation=1, ceil_mode=False)
    (6): Conv1d(30, 30, kernel_size=(5,), stride=(1,), padding=(2,), groups=30)
    (7): LayerNorm((30, 64), eps=1e-05, elementwise_affine=True)
    (8): MaxPool1d(kernel_size=2, stride=2, padding=0, dilation=1, ceil_mode=False)
  )
  (fc_layers): ModuleList(
    (0): Linear(in_features=240, out_features=2048, bias=True)
    (1): LayerNorm((2048,), eps=1e-05, elementwise_affine=True)
    (2): Linear(in_features=2048, out_features=512, bias=True)
    (3): LayerNorm((512,), eps=1e-05, elementwise_affine=True)
    (4): Linear(in_features=512, out_features=3, bias=True)
  )
  (dropout): Dropout(p=0, inplace=False)
)
ModelDNN_FlexibleLayers(
  (fc_layers): ModuleList(
    (0): Linear(in_features=1920, out_features=2048, bias=True)
    (1): LayerNorm((2048,), eps=1e-05, elementwise_affine=True)
    (2): Linear(in_features=2048, out_features=512, bias=True)
    (3): LayerNorm((512,), eps=1e-05, elementwise_affine=True)
    (4): Linear(in_features=512, out_features=3, bias=True)
  )
  (dropout): Dropout(p=0, inplace=False)
)
ModelLeNet(
  (cnn_layers): ModuleList(
    (0): Conv1d(30, 30, kernel_size=(5,), stride=(1,), padding=(2,), groups=30)
    (1): LayerNorm((30, 64), eps=1e-05, elementwise_affine=True)
    (2): MaxPool1d(kernel_size=2, stride=2, padding=0, dilation=1, ceil_mode=False)
    (3): Conv1d(30, 30, kernel_size=(5,), stride=(1,), padding=(2,), groups=30)
    (4): LayerNorm((30, 64), eps=1e-05, elementwise_affine=True)
    (5): MaxPool1d(kernel_size=2, stride=2, padding=0, dilation=1, ceil_mode=False)
    (6): Conv1d(30, 30, kernel_size=(5,), stride=(1,), padding=(2,), groups=30)
    (7): LayerNorm((30, 64), eps=1e-05, elementwise_affine=True)
    (8): MaxPool1d(kernel_size=2, stride=2, padding=0, dilation=1, ceil_mode=False)
  )
  (fc_layers): ModuleList(
    (0): Linear(in_features=240, out_features=2048, bias=True)
    (1): LayerNorm((2048,), eps=1e-05, elementwise_affine=True)
    (2): Linear(in_features=2048, out_features=512, bias=True)
    (3): LayerNorm((512,), eps=1e-05, elementwise_affine=True)
    (4): Linear(in_features=512, out_features=3, bias=True)
  )
  (dropout): Dropout(p=0, inplace=False)
)
ModelDNN_FlexibleLayers(
  (fc_layers): ModuleList(
    (0): Linear(in_features=1920, out_features=2048, bias=True)
    (1): LayerNorm((2048,), eps=1e-05, elementwise_affine=True)
    (2): Linear(in_features=2048, out_features=512, bias=True)
    (3): LayerNorm((512,), eps=1e-05, elementwise_affine=True)
    (4): Linear(in_features=512, out_features=3, bias=True)
  )
  (dropout): Dropout(p=0, inplace=False)
)
ModelLeNet(
  (cnn_layers): ModuleList(
    (0): Conv1d(30, 30, kernel_size=(5,), stride=(1,), padding=(2,), groups=30)
    (1): LayerNorm((30, 64), eps=1e-05, elementwise_affine=True)
    (2): MaxPool1d(kernel_size=2, stride=2, padding=0, dilation=1, ceil_mode=False)
    (3): Conv1d(30, 30, kernel_size=(5,), stride=(1,), padding=(2,), groups=30)
    (4): LayerNorm((30, 64), eps=1e-05, elementwise_affine=True)
    (5): MaxPool1d(kernel_size=2, stride=2, padding=0, dilation=1, ceil_mode=False)
    (6): Conv1d(30, 30, kernel_size=(5,), stride=(1,), padding=(2,), groups=30)
    (7): LayerNorm((30, 64), eps=1e-05, elementwise_affine=True)
    (8): MaxPool1d(kernel_size=2, stride=2, padding=0, dilation=1, ceil_mode=False)
  )
  (fc_layers): ModuleList(
    (0): Linear(in_features=240, out_features=2048, bias=True)
    (1): LayerNorm((2048,), eps=1e-05, elementwise_affine=True)
    (2): Linear(in_features=2048, out_features=512, bias=True)
    (3): LayerNorm((512,), eps=1e-05, elementwise_affine=True)
    (4): Linear(in_features=512, out_features=3, bias=True)
  )
  (dropout): Dropout(p=0, inplace=False)
)
ModelDNN_FlexibleLayers(
  (fc_layers): ModuleList(
    (0): Linear(in_features=1920, out_features=2048, bias=True)
    (1): LayerNorm((2048,), eps=1e-05, elementwise_affine=True)
    (2): Linear(in_features=2048, out_features=512, bias=True)
    (3): LayerNorm((512,), eps=1e-05, elementwise_affine=True)
    (4): Linear(in_features=512, out_features=3, bias=True)
  )
  (dropout): Dropout(p=0, inplace=False)
)
ModelLeNet(
  (cnn_layers): ModuleList(
    (0): Conv1d(30, 30, kernel_size=(5,), stride=(1,), padding=(2,), groups=30)
    (1): LayerNorm((30, 64), eps=1e-05, elementwise_affine=True)
    (2): MaxPool1d(kernel_size=2, stride=2, padding=0, dilation=1, ceil_mode=False)
    (3): Conv1d(30, 30, kernel_size=(5,), stride=(1,), padding=(2,), groups=30)
    (4): LayerNorm((30, 64), eps=1e-05, elementwise_affine=True)
    (5): MaxPool1d(kernel_size=2, stride=2, padding=0, dilation=1, ceil_mode=False)
    (6): Conv1d(30, 30, kernel_size=(5,), stride=(1,), padding=(2,), groups=30)
    (7): LayerNorm((30, 64), eps=1e-05, elementwise_affine=True)
    (8): MaxPool1d(kernel_size=2, stride=2, padding=0, dilation=1, ceil_mode=False)
  )
  (fc_layers): ModuleList(
    (0): Linear(in_features=240, out_features=2048, bias=True)
    (1): LayerNorm((2048,), eps=1e-05, elementwise_affine=True)
    (2): Linear(in_features=2048, out_features=512, bias=True)
    (3): LayerNorm((512,), eps=1e-05, elementwise_affine=True)
    (4): Linear(in_features=512, out_features=3, bias=True)
  )
  (dropout): Dropout(p=0, inplace=False)
)
ModelDNN_FlexibleLayers(
  (fc_layers): ModuleList(
    (0): Linear(in_features=1920, out_features=2048, bias=True)
    (1): LayerNorm((2048,), eps=1e-05, elementwise_affine=True)
    (2): Linear(in_features=2048, out_features=512, bias=True)
    (3): LayerNorm((512,), eps=1e-05, elementwise_affine=True)
    (4): Linear(in_features=512, out_features=3, bias=True)
  )
  (dropout): Dropout(p=0, inplace=False)
)
ModelLeNet(
  (cnn_layers): ModuleList(
    (0): Conv1d(30, 30, kernel_size=(5,), stride=(1,), padding=(2,), groups=30)
    (1): LayerNorm((30, 64), eps=1e-05, elementwise_affine=True)
    (2): MaxPool1d(kernel_size=2, stride=2, padding=0, dilation=1, ceil_mode=False)
    (3): Conv1d(30, 30, kernel_size=(5,), stride=(1,), padding=(2,), groups=30)
    (4): LayerNorm((30, 64), eps=1e-05, elementwise_affine=True)
    (5): MaxPool1d(kernel_size=2, stride=2, padding=0, dilation=1, ceil_mode=False)
    (6): Conv1d(30, 30, kernel_size=(5,), stride=(1,), padding=(2,), groups=30)
    (7): LayerNorm((30, 64), eps=1e-05, elementwise_affine=True)
    (8): MaxPool1d(kernel_size=2, stride=2, padding=0, dilation=1, ceil_mode=False)
  )
  (fc_layers): ModuleList(
    (0): Linear(in_features=240, out_features=2048, bias=True)
    (1): LayerNorm((2048,), eps=1e-05, elementwise_affine=True)
    (2): Linear(in_features=2048, out_features=512, bias=True)
    (3): LayerNorm((512,), eps=1e-05, elementwise_affine=True)
    (4): Linear(in_features=512, out_features=3, bias=True)
  )
  (dropout): Dropout(p=0, inplace=False)
)
ModelDNN_FlexibleLayers(
  (fc_layers): ModuleList(
    (0): Linear(in_features=1920, out_features=2048, bias=True)
    (1): LayerNorm((2048,), eps=1e-05, elementwise_affine=True)
    (2): Linear(in_features=2048, out_features=512, bias=True)
    (3): LayerNorm((512,), eps=1e-05, elementwise_affine=True)
    (4): Linear(in_features=512, out_features=3, bias=True)
  )
  (dropout): Dropout(p=0, inplace=False)
)
ModelLeNet(
  (cnn_layers): ModuleList(
    (0): Conv1d(30, 30, kernel_size=(5,), stride=(1,), padding=(2,), groups=30)
    (1): LayerNorm((30, 64), eps=1e-05, elementwise_affine=True)
    (2): MaxPool1d(kernel_size=2, stride=2, padding=0, dilation=1, ceil_mode=False)
    (3): Conv1d(30, 30, kernel_size=(5,), stride=(1,), padding=(2,), groups=30)
    (4): LayerNorm((30, 64), eps=1e-05, elementwise_affine=True)
    (5): MaxPool1d(kernel_size=2, stride=2, padding=0, dilation=1, ceil_mode=False)
    (6): Conv1d(30, 30, kernel_size=(5,), stride=(1,), padding=(2,), groups=30)
    (7): LayerNorm((30, 64), eps=1e-05, elementwise_affine=True)
    (8): MaxPool1d(kernel_size=2, stride=2, padding=0, dilation=1, ceil_mode=False)
  )
  (fc_layers): ModuleList(
    (0): Linear(in_features=240, out_features=2048, bias=True)
    (1): LayerNorm((2048,), eps=1e-05, elementwise_affine=True)
    (2): Linear(in_features=2048, out_features=512, bias=True)
    (3): LayerNorm((512,), eps=1e-05, elementwise_affine=True)
    (4): Linear(in_features=512, out_features=3, bias=True)
  )
  (dropout): Dropout(p=0, inplace=False)
)
ModelDNN_FlexibleLayers(
  (fc_layers): ModuleList(
    (0): Linear(in_features=1920, out_features=2048, bias=True)
    (1): LayerNorm((2048,), eps=1e-05, elementwise_affine=True)
    (2): Linear(in_features=2048, out_features=512, bias=True)
    (3): LayerNorm((512,), eps=1e-05, elementwise_affine=True)
    (4): Linear(in_features=512, out_features=3, bias=True)
  )
  (dropout): Dropout(p=0, inplace=False)
)
ModelLeNet(
  (cnn_layers): ModuleList(
    (0): Conv1d(30, 30, kernel_size=(5,), stride=(1,), padding=(2,), groups=30)
    (1): LayerNorm((30, 64), eps=1e-05, elementwise_affine=True)
    (2): MaxPool1d(kernel_size=2, stride=2, padding=0, dilation=1, ceil_mode=False)
    (3): Conv1d(30, 30, kernel_size=(5,), stride=(1,), padding=(2,), groups=30)
    (4): LayerNorm((30, 64), eps=1e-05, elementwise_affine=True)
    (5): MaxPool1d(kernel_size=2, stride=2, padding=0, dilation=1, ceil_mode=False)
    (6): Conv1d(30, 30, kernel_size=(5,), stride=(1,), padding=(2,), groups=30)
    (7): LayerNorm((30, 64), eps=1e-05, elementwise_affine=True)
    (8): MaxPool1d(kernel_size=2, stride=2, padding=0, dilation=1, ceil_mode=False)
  )
  (fc_layers): ModuleList(
    (0): Linear(in_features=240, out_features=2048, bias=True)
    (1): LayerNorm((2048,), eps=1e-05, elementwise_affine=True)
    (2): Linear(in_features=2048, out_features=512, bias=True)
    (3): LayerNorm((512,), eps=1e-05, elementwise_affine=True)
    (4): Linear(in_features=512, out_features=3, bias=True)
  )
  (dropout): Dropout(p=0, inplace=False)
)
ModelDNN_FlexibleLayers(
  (fc_layers): ModuleList(
    (0): Linear(in_features=1920, out_features=2048, bias=True)
    (1): LayerNorm((2048,), eps=1e-05, elementwise_affine=True)
    (2): Linear(in_features=2048, out_features=512, bias=True)
    (3): LayerNorm((512,), eps=1e-05, elementwise_affine=True)
    (4): Linear(in_features=512, out_features=3, bias=True)
  )
  (dropout): Dropout(p=0, inplace=False)
)
ModelLeNet(
  (cnn_layers): ModuleList(
    (0): Conv1d(30, 30, kernel_size=(5,), stride=(1,), padding=(2,), groups=30)
    (1): LayerNorm((30, 64), eps=1e-05, elementwise_affine=True)
    (2): MaxPool1d(kernel_size=2, stride=2, padding=0, dilation=1, ceil_mode=False)
    (3): Conv1d(30, 30, kernel_size=(5,), stride=(1,), padding=(2,), groups=30)
    (4): LayerNorm((30, 64), eps=1e-05, elementwise_affine=True)
    (5): MaxPool1d(kernel_size=2, stride=2, padding=0, dilation=1, ceil_mode=False)
    (6): Conv1d(30, 30, kernel_size=(5,), stride=(1,), padding=(2,), groups=30)
    (7): LayerNorm((30, 64), eps=1e-05, elementwise_affine=True)
    (8): MaxPool1d(kernel_size=2, stride=2, padding=0, dilation=1, ceil_mode=False)
  )
  (fc_layers): ModuleList(
    (0): Linear(in_features=240, out_features=2048, bias=True)
    (1): LayerNorm((2048,), eps=1e-05, elementwise_affine=True)
    (2): Linear(in_features=2048, out_features=512, bias=True)
    (3): LayerNorm((512,), eps=1e-05, elementwise_affine=True)
    (4): Linear(in_features=512, out_features=3, bias=True)
  )
  (dropout): Dropout(p=0, inplace=False)
)
ModelDNN_FlexibleLayers(
  (fc_layers): ModuleList(
    (0): Linear(in_features=1920, out_features=2048, bias=True)
    (1): LayerNorm((2048,), eps=1e-05, elementwise_affine=True)
    (2): Linear(in_features=2048, out_features=512, bias=True)
    (3): LayerNorm((512,), eps=1e-05, elementwise_affine=True)
    (4): Linear(in_features=512, out_features=3, bias=True)
  )
  (dropout): Dropout(p=0, inplace=False)
)
ModelLeNet(
  (cnn_layers): ModuleList(
    (0): Conv1d(30, 30, kernel_size=(5,), stride=(1,), padding=(2,), groups=30)
    (1): LayerNorm((30, 64), eps=1e-05, elementwise_affine=True)
    (2): MaxPool1d(kernel_size=2, stride=2, padding=0, dilation=1, ceil_mode=False)
    (3): Conv1d(30, 30, kernel_size=(5,), stride=(1,), padding=(2,), groups=30)
    (4): LayerNorm((30, 64), eps=1e-05, elementwise_affine=True)
    (5): MaxPool1d(kernel_size=2, stride=2, padding=0, dilation=1, ceil_mode=False)
    (6): Conv1d(30, 30, kernel_size=(5,), stride=(1,), padding=(2,), groups=30)
    (7): LayerNorm((30, 64), eps=1e-05, elementwise_affine=True)
    (8): MaxPool1d(kernel_size=2, stride=2, padding=0, dilation=1, ceil_mode=False)
  )
  (fc_layers): ModuleList(
    (0): Linear(in_features=240, out_features=2048, bias=True)
    (1): LayerNorm((2048,), eps=1e-05, elementwise_affine=True)
    (2): Linear(in_features=2048, out_features=512, bias=True)
    (3): LayerNorm((512,), eps=1e-05, elementwise_affine=True)
    (4): Linear(in_features=512, out_features=3, bias=True)
  )
  (dropout): Dropout(p=0, inplace=False)
)
ModelDNN_FlexibleLayers(
  (fc_layers): ModuleList(
    (0): Linear(in_features=1920, out_features=2048, bias=True)
    (1): LayerNorm((2048,), eps=1e-05, elementwise_affine=True)
    (2): Linear(in_features=2048, out_features=512, bias=True)
    (3): LayerNorm((512,), eps=1e-05, elementwise_affine=True)
    (4): Linear(in_features=512, out_features=3, bias=True)
  )
  (dropout): Dropout(p=0, inplace=False)
)
ModelLeNet(
  (cnn_layers): ModuleList(
    (0): Conv1d(30, 30, kernel_size=(5,), stride=(1,), padding=(2,), groups=30)
    (1): LayerNorm((30, 64), eps=1e-05, elementwise_affine=True)
    (2): MaxPool1d(kernel_size=2, stride=2, padding=0, dilation=1, ceil_mode=False)
    (3): Conv1d(30, 30, kernel_size=(5,), stride=(1,), padding=(2,), groups=30)
    (4): LayerNorm((30, 64), eps=1e-05, elementwise_affine=True)
    (5): MaxPool1d(kernel_size=2, stride=2, padding=0, dilation=1, ceil_mode=False)
    (6): Conv1d(30, 30, kernel_size=(5,), stride=(1,), padding=(2,), groups=30)
    (7): LayerNorm((30, 64), eps=1e-05, elementwise_affine=True)
    (8): MaxPool1d(kernel_size=2, stride=2, padding=0, dilation=1, ceil_mode=False)
  )
  (fc_layers): ModuleList(
    (0): Linear(in_features=240, out_features=2048, bias=True)
    (1): LayerNorm((2048,), eps=1e-05, elementwise_affine=True)
    (2): Linear(in_features=2048, out_features=512, bias=True)
    (3): LayerNorm((512,), eps=1e-05, elementwise_affine=True)
    (4): Linear(in_features=512, out_features=3, bias=True)
  )
  (dropout): Dropout(p=0, inplace=False)
)
ModelDNN_FlexibleLayers(
  (fc_layers): ModuleList(
    (0): Linear(in_features=1920, out_features=2048, bias=True)
    (1): LayerNorm((2048,), eps=1e-05, elementwise_affine=True)
    (2): Linear(in_features=2048, out_features=512, bias=True)
    (3): LayerNorm((512,), eps=1e-05, elementwise_affine=True)
    (4): Linear(in_features=512, out_features=3, bias=True)
  )
  (dropout): Dropout(p=0, inplace=False)
)
ModelLeNet(
  (cnn_layers): ModuleList(
    (0): Conv1d(30, 30, kernel_size=(5,), stride=(1,), padding=(2,), groups=30)
    (1): LayerNorm((30, 64), eps=1e-05, elementwise_affine=True)
    (2): MaxPool1d(kernel_size=2, stride=2, padding=0, dilation=1, ceil_mode=False)
    (3): Conv1d(30, 30, kernel_size=(5,), stride=(1,), padding=(2,), groups=30)
    (4): LayerNorm((30, 64), eps=1e-05, elementwise_affine=True)
    (5): MaxPool1d(kernel_size=2, stride=2, padding=0, dilation=1, ceil_mode=False)
    (6): Conv1d(30, 30, kernel_size=(5,), stride=(1,), padding=(2,), groups=30)
    (7): LayerNorm((30, 64), eps=1e-05, elementwise_affine=True)
    (8): MaxPool1d(kernel_size=2, stride=2, padding=0, dilation=1, ceil_mode=False)
  )
  (fc_layers): ModuleList(
    (0): Linear(in_features=240, out_features=2048, bias=True)
    (1): LayerNorm((2048,), eps=1e-05, elementwise_affine=True)
    (2): Linear(in_features=2048, out_features=512, bias=True)
    (3): LayerNorm((512,), eps=1e-05, elementwise_affine=True)
    (4): Linear(in_features=512, out_features=3, bias=True)
  )
  (dropout): Dropout(p=0, inplace=False)
)
ModelDNN_FlexibleLayers(
  (fc_layers): ModuleList(
    (0): Linear(in_features=1920, out_features=2048, bias=True)
    (1): LayerNorm((2048,), eps=1e-05, elementwise_affine=True)
    (2): Linear(in_features=2048, out_features=512, bias=True)
    (3): LayerNorm((512,), eps=1e-05, elementwise_affine=True)
    (4): Linear(in_features=512, out_features=3, bias=True)
  )
  (dropout): Dropout(p=0, inplace=False)
)
ModelLeNet(
  (cnn_layers): ModuleList(
    (0): Conv1d(30, 30, kernel_size=(5,), stride=(1,), padding=(2,), groups=30)
    (1): LayerNorm((30, 64), eps=1e-05, elementwise_affine=True)
    (2): MaxPool1d(kernel_size=2, stride=2, padding=0, dilation=1, ceil_mode=False)
    (3): Conv1d(30, 30, kernel_size=(5,), stride=(1,), padding=(2,), groups=30)
    (4): LayerNorm((30, 64), eps=1e-05, elementwise_affine=True)
    (5): MaxPool1d(kernel_size=2, stride=2, padding=0, dilation=1, ceil_mode=False)
    (6): Conv1d(30, 30, kernel_size=(5,), stride=(1,), padding=(2,), groups=30)
    (7): LayerNorm((30, 64), eps=1e-05, elementwise_affine=True)
    (8): MaxPool1d(kernel_size=2, stride=2, padding=0, dilation=1, ceil_mode=False)
  )
  (fc_layers): ModuleList(
    (0): Linear(in_features=240, out_features=2048, bias=True)
    (1): LayerNorm((2048,), eps=1e-05, elementwise_affine=True)
    (2): Linear(in_features=2048, out_features=512, bias=True)
    (3): LayerNorm((512,), eps=1e-05, elementwise_affine=True)
    (4): Linear(in_features=512, out_features=3, bias=True)
  )
  (dropout): Dropout(p=0, inplace=False)
)
ModelDNN_FlexibleLayers(
  (fc_layers): ModuleList(
    (0): Linear(in_features=1920, out_features=2048, bias=True)
    (1): LayerNorm((2048,), eps=1e-05, elementwise_affine=True)
    (2): Linear(in_features=2048, out_features=512, bias=True)
    (3): LayerNorm((512,), eps=1e-05, elementwise_affine=True)
    (4): Linear(in_features=512, out_features=3, bias=True)
  )
  (dropout): Dropout(p=0, inplace=False)
)
ModelLeNet(
  (cnn_layers): ModuleList(
    (0): Conv1d(30, 30, kernel_size=(5,), stride=(1,), padding=(2,), groups=30)
    (1): LayerNorm((30, 64), eps=1e-05, elementwise_affine=True)
    (2): MaxPool1d(kernel_size=2, stride=2, padding=0, dilation=1, ceil_mode=False)
    (3): Conv1d(30, 30, kernel_size=(5,), stride=(1,), padding=(2,), groups=30)
    (4): LayerNorm((30, 64), eps=1e-05, elementwise_affine=True)
    (5): MaxPool1d(kernel_size=2, stride=2, padding=0, dilation=1, ceil_mode=False)
    (6): Conv1d(30, 30, kernel_size=(5,), stride=(1,), padding=(2,), groups=30)
    (7): LayerNorm((30, 64), eps=1e-05, elementwise_affine=True)
    (8): MaxPool1d(kernel_size=2, stride=2, padding=0, dilation=1, ceil_mode=False)
  )
  (fc_layers): ModuleList(
    (0): Linear(in_features=240, out_features=2048, bias=True)
    (1): LayerNorm((2048,), eps=1e-05, elementwise_affine=True)
    (2): Linear(in_features=2048, out_features=512, bias=True)
    (3): LayerNorm((512,), eps=1e-05, elementwise_affine=True)
    (4): Linear(in_features=512, out_features=3, bias=True)
  )
  (dropout): Dropout(p=0, inplace=False)
)
ModelDNN_FlexibleLayers(
  (fc_layers): ModuleList(
    (0): Linear(in_features=1920, out_features=2048, bias=True)
    (1): LayerNorm((2048,), eps=1e-05, elementwise_affine=True)
    (2): Linear(in_features=2048, out_features=512, bias=True)
    (3): LayerNorm((512,), eps=1e-05, elementwise_affine=True)
    (4): Linear(in_features=512, out_features=3, bias=True)
  )
  (dropout): Dropout(p=0, inplace=False)
)
ModelLeNet(
  (cnn_layers): ModuleList(
    (0): Conv1d(30, 30, kernel_size=(5,), stride=(1,), padding=(2,), groups=30)
    (1): LayerNorm((30, 64), eps=1e-05, elementwise_affine=True)
    (2): MaxPool1d(kernel_size=2, stride=2, padding=0, dilation=1, ceil_mode=False)
    (3): Conv1d(30, 30, kernel_size=(5,), stride=(1,), padding=(2,), groups=30)
    (4): LayerNorm((30, 64), eps=1e-05, elementwise_affine=True)
    (5): MaxPool1d(kernel_size=2, stride=2, padding=0, dilation=1, ceil_mode=False)
    (6): Conv1d(30, 30, kernel_size=(5,), stride=(1,), padding=(2,), groups=30)
    (7): LayerNorm((30, 64), eps=1e-05, elementwise_affine=True)
    (8): MaxPool1d(kernel_size=2, stride=2, padding=0, dilation=1, ceil_mode=False)
  )
  (fc_layers): ModuleList(
    (0): Linear(in_features=240, out_features=2048, bias=True)
    (1): LayerNorm((2048,), eps=1e-05, elementwise_affine=True)
    (2): Linear(in_features=2048, out_features=512, bias=True)
    (3): LayerNorm((512,), eps=1e-05, elementwise_affine=True)
    (4): Linear(in_features=512, out_features=3, bias=True)
  )
  (dropout): Dropout(p=0, inplace=False)
)
ModelDNN_FlexibleLayers(
  (fc_layers): ModuleList(
    (0): Linear(in_features=1920, out_features=2048, bias=True)
    (1): LayerNorm((2048,), eps=1e-05, elementwise_affine=True)
    (2): Linear(in_features=2048, out_features=512, bias=True)
    (3): LayerNorm((512,), eps=1e-05, elementwise_affine=True)
    (4): Linear(in_features=512, out_features=3, bias=True)
  )
  (dropout): Dropout(p=0, inplace=False)
)
ModelLeNet(
  (cnn_layers): ModuleList(
    (0): Conv1d(30, 30, kernel_size=(5,), stride=(1,), padding=(2,), groups=30)
    (1): LayerNorm((30, 64), eps=1e-05, elementwise_affine=True)
    (2): MaxPool1d(kernel_size=2, stride=2, padding=0, dilation=1, ceil_mode=False)
    (3): Conv1d(30, 30, kernel_size=(5,), stride=(1,), padding=(2,), groups=30)
    (4): LayerNorm((30, 64), eps=1e-05, elementwise_affine=True)
    (5): MaxPool1d(kernel_size=2, stride=2, padding=0, dilation=1, ceil_mode=False)
    (6): Conv1d(30, 30, kernel_size=(5,), stride=(1,), padding=(2,), groups=30)
    (7): LayerNorm((30, 64), eps=1e-05, elementwise_affine=True)
    (8): MaxPool1d(kernel_size=2, stride=2, padding=0, dilation=1, ceil_mode=False)
  )
  (fc_layers): ModuleList(
    (0): Linear(in_features=240, out_features=2048, bias=True)
    (1): LayerNorm((2048,), eps=1e-05, elementwise_affine=True)
    (2): Linear(in_features=2048, out_features=512, bias=True)
    (3): LayerNorm((512,), eps=1e-05, elementwise_affine=True)
    (4): Linear(in_features=512, out_features=3, bias=True)
  )
  (dropout): Dropout(p=0, inplace=False)
)
ModelDNN_FlexibleLayers(
  (fc_layers): ModuleList(
    (0): Linear(in_features=1920, out_features=2048, bias=True)
    (1): LayerNorm((2048,), eps=1e-05, elementwise_affine=True)
    (2): Linear(in_features=2048, out_features=512, bias=True)
    (3): LayerNorm((512,), eps=1e-05, elementwise_affine=True)
    (4): Linear(in_features=512, out_features=3, bias=True)
  )
  (dropout): Dropout(p=0, inplace=False)
)
ModelLeNet(
  (cnn_layers): ModuleList(
    (0): Conv1d(30, 30, kernel_size=(5,), stride=(1,), padding=(2,), groups=30)
    (1): LayerNorm((30, 64), eps=1e-05, elementwise_affine=True)
    (2): MaxPool1d(kernel_size=2, stride=2, padding=0, dilation=1, ceil_mode=False)
    (3): Conv1d(30, 30, kernel_size=(5,), stride=(1,), padding=(2,), groups=30)
    (4): LayerNorm((30, 64), eps=1e-05, elementwise_affine=True)
    (5): MaxPool1d(kernel_size=2, stride=2, padding=0, dilation=1, ceil_mode=False)
    (6): Conv1d(30, 30, kernel_size=(5,), stride=(1,), padding=(2,), groups=30)
    (7): LayerNorm((30, 64), eps=1e-05, elementwise_affine=True)
    (8): MaxPool1d(kernel_size=2, stride=2, padding=0, dilation=1, ceil_mode=False)
  )
  (fc_layers): ModuleList(
    (0): Linear(in_features=240, out_features=2048, bias=True)
    (1): LayerNorm((2048,), eps=1e-05, elementwise_affine=True)
    (2): Linear(in_features=2048, out_features=512, bias=True)
    (3): LayerNorm((512,), eps=1e-05, elementwise_affine=True)
    (4): Linear(in_features=512, out_features=3, bias=True)
  )
  (dropout): Dropout(p=0, inplace=False)
)
ModelDNN_FlexibleLayers(
  (fc_layers): ModuleList(
    (0): Linear(in_features=1920, out_features=2048, bias=True)
    (1): LayerNorm((2048,), eps=1e-05, elementwise_affine=True)
    (2): Linear(in_features=2048, out_features=512, bias=True)
    (3): LayerNorm((512,), eps=1e-05, elementwise_affine=True)
    (4): Linear(in_features=512, out_features=3, bias=True)
  )
  (dropout): Dropout(p=0, inplace=False)
)
ModelLeNet(
  (cnn_layers): ModuleList(
    (0): Conv1d(30, 30, kernel_size=(5,), stride=(1,), padding=(2,), groups=30)
    (1): LayerNorm((30, 64), eps=1e-05, elementwise_affine=True)
    (2): MaxPool1d(kernel_size=2, stride=2, padding=0, dilation=1, ceil_mode=False)
    (3): Conv1d(30, 30, kernel_size=(5,), stride=(1,), padding=(2,), groups=30)
    (4): LayerNorm((30, 64), eps=1e-05, elementwise_affine=True)
    (5): MaxPool1d(kernel_size=2, stride=2, padding=0, dilation=1, ceil_mode=False)
    (6): Conv1d(30, 30, kernel_size=(5,), stride=(1,), padding=(2,), groups=30)
    (7): LayerNorm((30, 64), eps=1e-05, elementwise_affine=True)
    (8): MaxPool1d(kernel_size=2, stride=2, padding=0, dilation=1, ceil_mode=False)
  )
  (fc_layers): ModuleList(
    (0): Linear(in_features=240, out_features=2048, bias=True)
    (1): LayerNorm((2048,), eps=1e-05, elementwise_affine=True)
    (2): Linear(in_features=2048, out_features=512, bias=True)
    (3): LayerNorm((512,), eps=1e-05, elementwise_affine=True)
    (4): Linear(in_features=512, out_features=3, bias=True)
  )
  (dropout): Dropout(p=0, inplace=False)
)
ModelDNN_FlexibleLayers(
  (fc_layers): ModuleList(
    (0): Linear(in_features=1920, out_features=2048, bias=True)
    (1): LayerNorm((2048,), eps=1e-05, elementwise_affine=True)
    (2): Linear(in_features=2048, out_features=512, bias=True)
    (3): LayerNorm((512,), eps=1e-05, elementwise_affine=True)
    (4): Linear(in_features=512, out_features=3, bias=True)
  )
  (dropout): Dropout(p=0, inplace=False)
)
ModelDNN_FlexibleLayers(
  (fc_layers): ModuleList(
    (0): Linear(in_features=1920, out_features=2048, bias=True)
    (1): LayerNorm((2048,), eps=1e-05, elementwise_affine=True)
    (2): Linear(in_features=2048, out_features=512, bias=True)
    (3): LayerNorm((512,), eps=1e-05, elementwise_affine=True)
    (4): Linear(in_features=512, out_features=3, bias=True)
  )
  (dropout): Dropout(p=0, inplace=False)
)
ModelLeNet(
  (cnn_layers): ModuleList(
    (0): Conv1d(30, 30, kernel_size=(5,), stride=(1,), padding=(2,), groups=30)
    (1): LayerNorm((30, 64), eps=1e-05, elementwise_affine=True)
    (2): MaxPool1d(kernel_size=2, stride=2, padding=0, dilation=1, ceil_mode=False)
    (3): Conv1d(30, 30, kernel_size=(5,), stride=(1,), padding=(2,), groups=30)
    (4): LayerNorm((30, 64), eps=1e-05, elementwise_affine=True)
    (5): MaxPool1d(kernel_size=2, stride=2, padding=0, dilation=1, ceil_mode=False)
    (6): Conv1d(30, 30, kernel_size=(5,), stride=(1,), padding=(2,), groups=30)
    (7): LayerNorm((30, 64), eps=1e-05, elementwise_affine=True)
    (8): MaxPool1d(kernel_size=2, stride=2, padding=0, dilation=1, ceil_mode=False)
  )
  (fc_layers): ModuleList(
    (0): Linear(in_features=240, out_features=2048, bias=True)
    (1): LayerNorm((2048,), eps=1e-05, elementwise_affine=True)
    (2): Linear(in_features=2048, out_features=512, bias=True)
    (3): LayerNorm((512,), eps=1e-05, elementwise_affine=True)
    (4): Linear(in_features=512, out_features=3, bias=True)
  )
  (dropout): Dropout(p=0, inplace=False)
)
ModelDNN_FlexibleLayers(
  (fc_layers): ModuleList(
    (0): Linear(in_features=1920, out_features=2048, bias=True)
    (1): LayerNorm((2048,), eps=1e-05, elementwise_affine=True)
    (2): Linear(in_features=2048, out_features=512, bias=True)
    (3): LayerNorm((512,), eps=1e-05, elementwise_affine=True)
    (4): Linear(in_features=512, out_features=3, bias=True)
  )
  (dropout): Dropout(p=0, inplace=False)
)
ModelLeNet(
  (cnn_layers): ModuleList(
    (0): Conv1d(30, 30, kernel_size=(5,), stride=(1,), padding=(2,), groups=30)
    (1): LayerNorm((30, 64), eps=1e-05, elementwise_affine=True)
    (2): MaxPool1d(kernel_size=2, stride=2, padding=0, dilation=1, ceil_mode=False)
    (3): Conv1d(30, 30, kernel_size=(5,), stride=(1,), padding=(2,), groups=30)
    (4): LayerNorm((30, 64), eps=1e-05, elementwise_affine=True)
    (5): MaxPool1d(kernel_size=2, stride=2, padding=0, dilation=1, ceil_mode=False)
    (6): Conv1d(30, 30, kernel_size=(5,), stride=(1,), padding=(2,), groups=30)
    (7): LayerNorm((30, 64), eps=1e-05, elementwise_affine=True)
    (8): MaxPool1d(kernel_size=2, stride=2, padding=0, dilation=1, ceil_mode=False)
  )
  (fc_layers): ModuleList(
    (0): Linear(in_features=240, out_features=2048, bias=True)
    (1): LayerNorm((2048,), eps=1e-05, elementwise_affine=True)
    (2): Linear(in_features=2048, out_features=512, bias=True)
    (3): LayerNorm((512,), eps=1e-05, elementwise_affine=True)
    (4): Linear(in_features=512, out_features=3, bias=True)
  )
  (dropout): Dropout(p=0, inplace=False)
)
ModelDNN_FlexibleLayers(
  (fc_layers): ModuleList(
    (0): Linear(in_features=1920, out_features=2048, bias=True)
    (1): LayerNorm((2048,), eps=1e-05, elementwise_affine=True)
    (2): Linear(in_features=2048, out_features=512, bias=True)
    (3): LayerNorm((512,), eps=1e-05, elementwise_affine=True)
    (4): Linear(in_features=512, out_features=3, bias=True)
  )
  (dropout): Dropout(p=0, inplace=False)
)
ModelLeNet(
  (cnn_layers): ModuleList(
    (0): Conv1d(30, 30, kernel_size=(5,), stride=(1,), padding=(2,), groups=30)
    (1): LayerNorm((30, 64), eps=1e-05, elementwise_affine=True)
    (2): MaxPool1d(kernel_size=2, stride=2, padding=0, dilation=1, ceil_mode=False)
    (3): Conv1d(30, 30, kernel_size=(5,), stride=(1,), padding=(2,), groups=30)
    (4): LayerNorm((30, 64), eps=1e-05, elementwise_affine=True)
    (5): MaxPool1d(kernel_size=2, stride=2, padding=0, dilation=1, ceil_mode=False)
    (6): Conv1d(30, 30, kernel_size=(5,), stride=(1,), padding=(2,), groups=30)
    (7): LayerNorm((30, 64), eps=1e-05, elementwise_affine=True)
    (8): MaxPool1d(kernel_size=2, stride=2, padding=0, dilation=1, ceil_mode=False)
  )
  (fc_layers): ModuleList(
    (0): Linear(in_features=240, out_features=2048, bias=True)
    (1): LayerNorm((2048,), eps=1e-05, elementwise_affine=True)
    (2): Linear(in_features=2048, out_features=512, bias=True)
    (3): LayerNorm((512,), eps=1e-05, elementwise_affine=True)
    (4): Linear(in_features=512, out_features=3, bias=True)
  )
  (dropout): Dropout(p=0, inplace=False)
)
ModelDNN_FlexibleLayers(
  (fc_layers): ModuleList(
    (0): Linear(in_features=1920, out_features=2048, bias=True)
    (1): LayerNorm((2048,), eps=1e-05, elementwise_affine=True)
    (2): Linear(in_features=2048, out_features=512, bias=True)
    (3): LayerNorm((512,), eps=1e-05, elementwise_affine=True)
    (4): Linear(in_features=512, out_features=3, bias=True)
  )
  (dropout): Dropout(p=0, inplace=False)
)
ModelLeNet(
  (cnn_layers): ModuleList(
    (0): Conv1d(30, 30, kernel_size=(5,), stride=(1,), padding=(2,), groups=30)
    (1): LayerNorm((30, 64), eps=1e-05, elementwise_affine=True)
    (2): MaxPool1d(kernel_size=2, stride=2, padding=0, dilation=1, ceil_mode=False)
    (3): Conv1d(30, 30, kernel_size=(5,), stride=(1,), padding=(2,), groups=30)
    (4): LayerNorm((30, 64), eps=1e-05, elementwise_affine=True)
    (5): MaxPool1d(kernel_size=2, stride=2, padding=0, dilation=1, ceil_mode=False)
    (6): Conv1d(30, 30, kernel_size=(5,), stride=(1,), padding=(2,), groups=30)
    (7): LayerNorm((30, 64), eps=1e-05, elementwise_affine=True)
    (8): MaxPool1d(kernel_size=2, stride=2, padding=0, dilation=1, ceil_mode=False)
  )
  (fc_layers): ModuleList(
    (0): Linear(in_features=240, out_features=2048, bias=True)
    (1): LayerNorm((2048,), eps=1e-05, elementwise_affine=True)
    (2): Linear(in_features=2048, out_features=512, bias=True)
    (3): LayerNorm((512,), eps=1e-05, elementwise_affine=True)
    (4): Linear(in_features=512, out_features=3, bias=True)
  )
  (dropout): Dropout(p=0, inplace=False)
)
ModelDNN_FlexibleLayers(
  (fc_layers): ModuleList(
    (0): Linear(in_features=1920, out_features=2048, bias=True)
    (1): LayerNorm((2048,), eps=1e-05, elementwise_affine=True)
    (2): Linear(in_features=2048, out_features=512, bias=True)
    (3): LayerNorm((512,), eps=1e-05, elementwise_affine=True)
    (4): Linear(in_features=512, out_features=3, bias=True)
  )
  (dropout): Dropout(p=0, inplace=False)
)
ModelLeNet(
  (cnn_layers): ModuleList(
    (0): Conv1d(30, 30, kernel_size=(5,), stride=(1,), padding=(2,), groups=30)
    (1): LayerNorm((30, 64), eps=1e-05, elementwise_affine=True)
    (2): MaxPool1d(kernel_size=2, stride=2, padding=0, dilation=1, ceil_mode=False)
    (3): Conv1d(30, 30, kernel_size=(5,), stride=(1,), padding=(2,), groups=30)
    (4): LayerNorm((30, 64), eps=1e-05, elementwise_affine=True)
    (5): MaxPool1d(kernel_size=2, stride=2, padding=0, dilation=1, ceil_mode=False)
    (6): Conv1d(30, 30, kernel_size=(5,), stride=(1,), padding=(2,), groups=30)
    (7): LayerNorm((30, 64), eps=1e-05, elementwise_affine=True)
    (8): MaxPool1d(kernel_size=2, stride=2, padding=0, dilation=1, ceil_mode=False)
  )
  (fc_layers): ModuleList(
    (0): Linear(in_features=240, out_features=2048, bias=True)
    (1): LayerNorm((2048,), eps=1e-05, elementwise_affine=True)
    (2): Linear(in_features=2048, out_features=512, bias=True)
    (3): LayerNorm((512,), eps=1e-05, elementwise_affine=True)
    (4): Linear(in_features=512, out_features=3, bias=True)
  )
  (dropout): Dropout(p=0, inplace=False)
)
ModelDNN_FlexibleLayers(
  (fc_layers): ModuleList(
    (0): Linear(in_features=1920, out_features=2048, bias=True)
    (1): LayerNorm((2048,), eps=1e-05, elementwise_affine=True)
    (2): Linear(in_features=2048, out_features=512, bias=True)
    (3): LayerNorm((512,), eps=1e-05, elementwise_affine=True)
    (4): Linear(in_features=512, out_features=3, bias=True)
  )
…
    (4): Linear(in_features=512, out_features=3, bias=True)
  )
  (dropout): Dropout(p=0, inplace=False)
)
ModelLeNet(
  (cnn_layers): ModuleList(
    (0): Conv1d(30, 30, kernel_size=(5,), stride=(1,), padding=(2,), groups=30)
    (1): LayerNorm((30, 64), eps=1e-05, elementwise_affine=True)
    (2): MaxPool1d(kernel_size=2, stride=2, padding=0, dilation=1, ceil_mode=False)
    (3): Conv1d(30, 30, kernel_size=(5,), stride=(1,), padding=(2,), groups=30)
    (4): LayerNorm((30, 64), eps=1e-05, elementwise_affine=True)
    (5): MaxPool1d(kernel_size=2, stride=2, padding=0, dilation=1, ceil_mode=False)
    (6): Conv1d(30, 30, kernel_size=(5,), stride=(1,), padding=(2,), groups=30)
    (7): LayerNorm((30, 64), eps=1e-05, elementwise_affine=True)
    (8): MaxPool1d(kernel_size=2, stride=2, padding=0, dilation=1, ceil_mode=False)
  )
  (fc_layers): ModuleList(
    (0): Linear(in_features=240, out_features=2048, bias=True)
    (1): LayerNorm((2048,), eps=1e-05, elementwise_affine=True)
    (2): Linear(in_features=2048, out_features=512, bias=True)
    (3): LayerNorm((512,), eps=1e-05, elementwise_affine=True)
    (4): Linear(in_features=512, out_features=3, bias=True)
  )
  (dropout): Dropout(p=0, inplace=False)
)
ModelDNN_FlexibleLayers(
  (fc_layers): ModuleList(
    (0): Linear(in_features=1920, out_features=2048, bias=True)
    (1): LayerNorm((2048,), eps=1e-05, elementwise_affine=True)
    (2): Linear(in_features=2048, out_features=512, bias=True)
    (3): LayerNorm((512,), eps=1e-05, elementwise_affine=True)
    (4): Linear(in_features=512, out_features=3, bias=True)
  )
  (dropout): Dropout(p=0, inplace=False)
)
ModelLeNet(
  (cnn_layers): ModuleList(
    (0): Conv1d(30, 30, kernel_size=(5,), stride=(1,), padding=(2,), groups=30)
    (1): LayerNorm((30, 64), eps=1e-05, elementwise_affine=True)
    (2): MaxPool1d(kernel_size=2, stride=2, padding=0, dilation=1, ceil_mode=False)
    (3): Conv1d(30, 30, kernel_size=(5,), stride=(1,), padding=(2,), groups=30)
    (4): LayerNorm((30, 64), eps=1e-05, elementwise_affine=True)
    (5): MaxPool1d(kernel_size=2, stride=2, padding=0, dilation=1, ceil_mode=False)
    (6): Conv1d(30, 30, kernel_size=(5,), stride=(1,), padding=(2,), groups=30)
    (7): LayerNorm((30, 64), eps=1e-05, elementwise_affine=True)
    (8): MaxPool1d(kernel_size=2, stride=2, padding=0, dilation=1, ceil_mode=False)
  )
  (fc_layers): ModuleList(
    (0): Linear(in_features=240, out_features=2048, bias=True)
    (1): LayerNorm((2048,), eps=1e-05, elementwise_affine=True)
    (2): Linear(in_features=2048, out_features=512, bias=True)
    (3): LayerNorm((512,), eps=1e-05, elementwise_affine=True)
    (4): Linear(in_features=512, out_features=3, bias=True)
  )
  (dropout): Dropout(p=0, inplace=False)
)
ModelDNN_FlexibleLayers(
  (fc_layers): ModuleList(
    (0): Linear(in_features=1920, out_features=2048, bias=True)
    (1): LayerNorm((2048,), eps=1e-05, elementwise_affine=True)
    (2): Linear(in_features=2048, out_features=512, bias=True)
    (3): LayerNorm((512,), eps=1e-05, elementwise_affine=True)
    (4): Linear(in_features=512, out_features=3, bias=True)
  )
  (dropout): Dropout(p=0, inplace=False)
)
ModelLeNet(
  (cnn_layers): ModuleList(
    (0): Conv1d(30, 30, kernel_size=(5,), stride=(1,), padding=(2,), groups=30)
    (1): LayerNorm((30, 64), eps=1e-05, elementwise_affine=True)
    (2): MaxPool1d(kernel_size=2, stride=2, padding=0, dilation=1, ceil_mode=False)
    (3): Conv1d(30, 30, kernel_size=(5,), stride=(1,), padding=(2,), groups=30)
    (4): LayerNorm((30, 64), eps=1e-05, elementwise_affine=True)
    (5): MaxPool1d(kernel_size=2, stride=2, padding=0, dilation=1, ceil_mode=False)
    (6): Conv1d(30, 30, kernel_size=(5,), stride=(1,), padding=(2,), groups=30)
    (7): LayerNorm((30, 64), eps=1e-05, elementwise_affine=True)
    (8): MaxPool1d(kernel_size=2, stride=2, padding=0, dilation=1, ceil_mode=False)
  )
  (fc_layers): ModuleList(
    (0): Linear(in_features=240, out_features=2048, bias=True)
    (1): LayerNorm((2048,), eps=1e-05, elementwise_affine=True)
    (2): Linear(in_features=2048, out_features=512, bias=True)
    (3): LayerNorm((512,), eps=1e-05, elementwise_affine=True)
    (4): Linear(in_features=512, out_features=3, bias=True)
  )
  (dropout): Dropout(p=0, inplace=False)
)
ModelDNN_FlexibleLayers(
  (fc_layers): ModuleList(
    (0): Linear(in_features=1920, out_features=2048, bias=True)
    (1): LayerNorm((2048,), eps=1e-05, elementwise_affine=True)
    (2): Linear(in_features=2048, out_features=512, bias=True)
    (3): LayerNorm((512,), eps=1e-05, elementwise_affine=True)
    (4): Linear(in_features=512, out_features=3, bias=True)
  )
  (dropout): Dropout(p=0, inplace=False)
)
ModelLeNet(
  (cnn_layers): ModuleList(
    (0): Conv1d(30, 30, kernel_size=(5,), stride=(1,), padding=(2,), groups=30)
    (1): LayerNorm((30, 64), eps=1e-05, elementwise_affine=True)
    (2): MaxPool1d(kernel_size=2, stride=2, padding=0, dilation=1, ceil_mode=False)
    (3): Conv1d(30, 30, kernel_size=(5,), stride=(1,), padding=(2,), groups=30)
    (4): LayerNorm((30, 64), eps=1e-05, elementwise_affine=True)
    (5): MaxPool1d(kernel_size=2, stride=2, padding=0, dilation=1, ceil_mode=False)
    (6): Conv1d(30, 30, kernel_size=(5,), stride=(1,), padding=(2,), groups=30)
    (7): LayerNorm((30, 64), eps=1e-05, elementwise_affine=True)
    (8): MaxPool1d(kernel_size=2, stride=2, padding=0, dilation=1, ceil_mode=False)
  )
  (fc_layers): ModuleList(
    (0): Linear(in_features=240, out_features=2048, bias=True)
    (1): LayerNorm((2048,), eps=1e-05, elementwise_affine=True)
    (2): Linear(in_features=2048, out_features=512, bias=True)
    (3): LayerNorm((512,), eps=1e-05, elementwise_affine=True)
    (4): Linear(in_features=512, out_features=3, bias=True)
  )
  (dropout): Dropout(p=0, inplace=False)
)
ModelDNN_FlexibleLayers(
  (fc_layers): ModuleList(
    (0): Linear(in_features=1920, out_features=2048, bias=True)
    (1): LayerNorm((2048,), eps=1e-05, elementwise_affine=True)
    (2): Linear(in_features=2048, out_features=512, bias=True)
    (3): LayerNorm((512,), eps=1e-05, elementwise_affine=True)
    (4): Linear(in_features=512, out_features=3, bias=True)
  )
  (dropout): Dropout(p=0, inplace=False)
)
ModelLeNet(
  (cnn_layers): ModuleList(
    (0): Conv1d(30, 30, kernel_size=(5,), stride=(1,), padding=(2,), groups=30)
    (1): LayerNorm((30, 64), eps=1e-05, elementwise_affine=True)
    (2): MaxPool1d(kernel_size=2, stride=2, padding=0, dilation=1, ceil_mode=False)
    (3): Conv1d(30, 30, kernel_size=(5,), stride=(1,), padding=(2,), groups=30)
    (4): LayerNorm((30, 64), eps=1e-05, elementwise_affine=True)
    (5): MaxPool1d(kernel_size=2, stride=2, padding=0, dilation=1, ceil_mode=False)
    (6): Conv1d(30, 30, kernel_size=(5,), stride=(1,), padding=(2,), groups=30)
    (7): LayerNorm((30, 64), eps=1e-05, elementwise_affine=True)
    (8): MaxPool1d(kernel_size=2, stride=2, padding=0, dilation=1, ceil_mode=False)
  )
  (fc_layers): ModuleList(
    (0): Linear(in_features=240, out_features=2048, bias=True)
    (1): LayerNorm((2048,), eps=1e-05, elementwise_affine=True)
    (2): Linear(in_features=2048, out_features=512, bias=True)
    (3): LayerNorm((512,), eps=1e-05, elementwise_affine=True)
    (4): Linear(in_features=512, out_features=3, bias=True)
  )
  (dropout): Dropout(p=0, inplace=False)
)
ModelDNN_FlexibleLayers(
  (fc_layers): ModuleList(
    (0): Linear(in_features=1920, out_features=2048, bias=True)
    (1): LayerNorm((2048,), eps=1e-05, elementwise_affine=True)
    (2): Linear(in_features=2048, out_features=512, bias=True)
    (3): LayerNorm((512,), eps=1e-05, elementwise_affine=True)
    (4): Linear(in_features=512, out_features=3, bias=True)
  )
  (dropout): Dropout(p=0, inplace=False)
)
ModelLeNet(
  (cnn_layers): ModuleList(
    (0): Conv1d(30, 30, kernel_size=(5,), stride=(1,), padding=(2,), groups=30)
    (1): LayerNorm((30, 64), eps=1e-05, elementwise_affine=True)
    (2): MaxPool1d(kernel_size=2, stride=2, padding=0, dilation=1, ceil_mode=False)
    (3): Conv1d(30, 30, kernel_size=(5,), stride=(1,), padding=(2,), groups=30)
    (4): LayerNorm((30, 64), eps=1e-05, elementwise_affine=True)
    (5): MaxPool1d(kernel_size=2, stride=2, padding=0, dilation=1, ceil_mode=False)
    (6): Conv1d(30, 30, kernel_size=(5,), stride=(1,), padding=(2,), groups=30)
    (7): LayerNorm((30, 64), eps=1e-05, elementwise_affine=True)
    (8): MaxPool1d(kernel_size=2, stride=2, padding=0, dilation=1, ceil_mode=False)
  )
  (fc_layers): ModuleList(
    (0): Linear(in_features=240, out_features=2048, bias=True)
    (1): LayerNorm((2048,), eps=1e-05, elementwise_affine=True)
    (2): Linear(in_features=2048, out_features=512, bias=True)
    (3): LayerNorm((512,), eps=1e-05, elementwise_affine=True)
    (4): Linear(in_features=512, out_features=3, bias=True)
  )
  (dropout): Dropout(p=0, inplace=False)
)
ModelDNN_FlexibleLayers(
  (fc_layers): ModuleList(
    (0): Linear(in_features=1920, out_features=2048, bias=True)
    (1): LayerNorm((2048,), eps=1e-05, elementwise_affine=True)
    (2): Linear(in_features=2048, out_features=512, bias=True)
    (3): LayerNorm((512,), eps=1e-05, elementwise_affine=True)
    (4): Linear(in_features=512, out_features=3, bias=True)
  )
  (dropout): Dropout(p=0, inplace=False)
)
ModelLeNet(
  (cnn_layers): ModuleList(
    (0): Conv1d(30, 30, kernel_size=(5,), stride=(1,), padding=(2,), groups=30)
    (1): LayerNorm((30, 64), eps=1e-05, elementwise_affine=True)
    (2): MaxPool1d(kernel_size=2, stride=2, padding=0, dilation=1, ceil_mode=False)
    (3): Conv1d(30, 30, kernel_size=(5,), stride=(1,), padding=(2,), groups=30)
    (4): LayerNorm((30, 64), eps=1e-05, elementwise_affine=True)
    (5): MaxPool1d(kernel_size=2, stride=2, padding=0, dilation=1, ceil_mode=False)
    (6): Conv1d(30, 30, kernel_size=(5,), stride=(1,), padding=(2,), groups=30)
    (7): LayerNorm((30, 64), eps=1e-05, elementwise_affine=True)
    (8): MaxPool1d(kernel_size=2, stride=2, padding=0, dilation=1, ceil_mode=False)
  )
  (fc_layers): ModuleList(
    (0): Linear(in_features=240, out_features=2048, bias=True)
    (1): LayerNorm((2048,), eps=1e-05, elementwise_affine=True)
    (2): Linear(in_features=2048, out_features=512, bias=True)
    (3): LayerNorm((512,), eps=1e-05, elementwise_affine=True)
    (4): Linear(in_features=512, out_features=3, bias=True)
  )
  (dropout): Dropout(p=0, inplace=False)
)
ModelDNN_FlexibleLayers(
  (fc_layers): ModuleList(
    (0): Linear(in_features=1920, out_features=2048, bias=True)
    (1): LayerNorm((2048,), eps=1e-05, elementwise_affine=True)
    (2): Linear(in_features=2048, out_features=512, bias=True)
    (3): LayerNorm((512,), eps=1e-05, elementwise_affine=True)
    (4): Linear(in_features=512, out_features=3, bias=True)
  )
  (dropout): Dropout(p=0, inplace=False)
)
ModelLeNet(
  (cnn_layers): ModuleList(
    (0): Conv1d(30, 30, kernel_size=(5,), stride=(1,), padding=(2,), groups=30)
    (1): LayerNorm((30, 64), eps=1e-05, elementwise_affine=True)
    (2): MaxPool1d(kernel_size=2, stride=2, padding=0, dilation=1, ceil_mode=False)
    (3): Conv1d(30, 30, kernel_size=(5,), stride=(1,), padding=(2,), groups=30)
    (4): LayerNorm((30, 64), eps=1e-05, elementwise_affine=True)
    (5): MaxPool1d(kernel_size=2, stride=2, padding=0, dilation=1, ceil_mode=False)
    (6): Conv1d(30, 30, kernel_size=(5,), stride=(1,), padding=(2,), groups=30)
    (7): LayerNorm((30, 64), eps=1e-05, elementwise_affine=True)
    (8): MaxPool1d(kernel_size=2, stride=2, padding=0, dilation=1, ceil_mode=False)
  )
  (fc_layers): ModuleList(
    (0): Linear(in_features=240, out_features=2048, bias=True)
    (1): LayerNorm((2048,), eps=1e-05, elementwise_affine=True)
    (2): Linear(in_features=2048, out_features=512, bias=True)
    (3): LayerNorm((512,), eps=1e-05, elementwise_affine=True)
    (4): Linear(in_features=512, out_features=3, bias=True)
  )
  (dropout): Dropout(p=0, inplace=False)
)
ModelDNN_FlexibleLayers(
  (fc_layers): ModuleList(
    (0): Linear(in_features=1920, out_features=2048, bias=True)
    (1): LayerNorm((2048,), eps=1e-05, elementwise_affine=True)
    (2): Linear(in_features=2048, out_features=512, bias=True)
    (3): LayerNorm((512,), eps=1e-05, elementwise_affine=True)
    (4): Linear(in_features=512, out_features=3, bias=True)
  )
  (dropout): Dropout(p=0, inplace=False)
)
ModelLeNet(
  (cnn_layers): ModuleList(
    (0): Conv1d(30, 30, kernel_size=(5,), stride=(1,), padding=(2,), groups=30)
    (1): LayerNorm((30, 64), eps=1e-05, elementwise_affine=True)
    (2): MaxPool1d(kernel_size=2, stride=2, padding=0, dilation=1, ceil_mode=False)
    (3): Conv1d(30, 30, kernel_size=(5,), stride=(1,), padding=(2,), groups=30)
    (4): LayerNorm((30, 64), eps=1e-05, elementwise_affine=True)
    (5): MaxPool1d(kernel_size=2, stride=2, padding=0, dilation=1, ceil_mode=False)
    (6): Conv1d(30, 30, kernel_size=(5,), stride=(1,), padding=(2,), groups=30)
    (7): LayerNorm((30, 64), eps=1e-05, elementwise_affine=True)
    (8): MaxPool1d(kernel_size=2, stride=2, padding=0, dilation=1, ceil_mode=False)
  )
  (fc_layers): ModuleList(
    (0): Linear(in_features=240, out_features=2048, bias=True)
    (1): LayerNorm((2048,), eps=1e-05, elementwise_affine=True)
    (2): Linear(in_features=2048, out_features=512, bias=True)
    (3): LayerNorm((512,), eps=1e-05, elementwise_affine=True)
    (4): Linear(in_features=512, out_features=3, bias=True)
  )
  (dropout): Dropout(p=0, inplace=False)
)
ModelDNN_FlexibleLayers(
  (fc_layers): ModuleList(
    (0): Linear(in_features=1920, out_features=2048, bias=True)
    (1): LayerNorm((2048,), eps=1e-05, elementwise_affine=True)
    (2): Linear(in_features=2048, out_features=512, bias=True)
    (3): LayerNorm((512,), eps=1e-05, elementwise_affine=True)
    (4): Linear(in_features=512, out_features=3, bias=True)
  )
  (dropout): Dropout(p=0, inplace=False)
)
ModelDNN_FlexibleLayers(
  (fc_layers): ModuleList(
    (0): Linear(in_features=1920, out_features=2048, bias=True)
    (1): LayerNorm((2048,), eps=1e-05, elementwise_affine=True)
    (2): Linear(in_features=2048, out_features=512, bias=True)
    (3): LayerNorm((512,), eps=1e-05, elementwise_affine=True)
    (4): Linear(in_features=512, out_features=3, bias=True)
  )
  (dropout): Dropout(p=0, inplace=False)
)
ModelDNN_FlexibleLayers(
  (fc_layers): ModuleList(
    (0): Linear(in_features=1920, out_features=2048, bias=True)
    (1): LayerNorm((2048,), eps=1e-05, elementwise_affine=True)
    (2): Linear(in_features=2048, out_features=512, bias=True)
    (3): LayerNorm((512,), eps=1e-05, elementwise_affine=True)
    (4): Linear(in_features=512, out_features=3, bias=True)
  )
  (dropout): Dropout(p=0, inplace=False)
)
ModelDNN_FlexibleLayers(
  (fc_layers): ModuleList(
    (0): Linear(in_features=1920, out_features=2048, bias=True)
    (1): LayerNorm((2048,), eps=1e-05, elementwise_affine=True)
    (2): Linear(in_features=2048, out_features=512, bias=True)
    (3): LayerNorm((512,), eps=1e-05, elementwise_affine=True)
    (4): Linear(in_features=512, out_features=3, bias=True)
  )
  (dropout): Dropout(p=0, inplace=False)
)
ModelDNN_FlexibleLayers(
  (fc_layers): ModuleList(
    (0): Linear(in_features=1920, out_features=2048, bias=True)
    (1): LayerNorm((2048,), eps=1e-05, elementwise_affine=True)
    (2): Linear(in_features=2048, out_features=512, bias=True)
    (3): LayerNorm((512,), eps=1e-05, elementwise_affine=True)
    (4): Linear(in_features=512, out_features=3, bias=True)
  )
  (dropout): Dropout(p=0, inplace=False)
)
ModelDNN_FlexibleLayers(
  (fc_layers): ModuleList(
    (0): Linear(in_features=1920, out_features=2048, bias=True)
    (1): LayerNorm((2048,), eps=1e-05, elementwise_affine=True)
    (2): Linear(in_features=2048, out_features=512, bias=True)
    (3): LayerNorm((512,), eps=1e-05, elementwise_affine=True)
    (4): Linear(in_features=512, out_features=3, bias=True)
  )
  (dropout): Dropout(p=0, inplace=False)
)
ModelDNN_FlexibleLayers(
  (fc_layers): ModuleList(
    (0): Linear(in_features=1920, out_features=2048, bias=True)
    (1): LayerNorm((2048,), eps=1e-05, elementwise_affine=True)
    (2): Linear(in_features=2048, out_features=512, bias=True)
    (3): LayerNorm((512,), eps=1e-05, elementwise_affine=True)
    (4): Linear(in_features=512, out_features=3, bias=True)
  )
  (dropout): Dropout(p=0, inplace=False)
)
ModelDNN_FlexibleLayers(
  (fc_layers): ModuleList(
    (0): Linear(in_features=1920, out_features=2048, bias=True)
    (1): LayerNorm((2048,), eps=1e-05, elementwise_affine=True)
    (2): Linear(in_features=2048, out_features=512, bias=True)
    (3): LayerNorm((512,), eps=1e-05, elementwise_affine=True)
    (4): Linear(in_features=512, out_features=3, bias=True)
  )
  (dropout): Dropout(p=0, inplace=False)
)
ModelDNN_FlexibleLayers(
  (fc_layers): ModuleList(
    (0): Linear(in_features=1920, out_features=2048, bias=True)
    (1): LayerNorm((2048,), eps=1e-05, elementwise_affine=True)
    (2): Linear(in_features=2048, out_features=512, bias=True)
    (3): LayerNorm((512,), eps=1e-05, elementwise_affine=True)
    (4): Linear(in_features=512, out_features=3, bias=True)
  )
  (dropout): Dropout(p=0, inplace=False)
)
ModelDNN_FlexibleLayers(
  (fc_layers): ModuleList(
    (0): Linear(in_features=1920, out_features=2048, bias=True)
    (1): LayerNorm((2048,), eps=1e-05, elementwise_affine=True)
    (2): Linear(in_features=2048, out_features=512, bias=True)
    (3): LayerNorm((512,), eps=1e-05, elementwise_affine=True)
    (4): Linear(in_features=512, out_features=3, bias=True)
  )
  (dropout): Dropout(p=0, inplace=False)
)
ModelDNN_FlexibleLayers(
  (fc_layers): ModuleList(
    (0): Linear(in_features=1920, out_features=2048, bias=True)
    (1): LayerNorm((2048,), eps=1e-05, elementwise_affine=True)
    (2): Linear(in_features=2048, out_features=512, bias=True)
    (3): LayerNorm((512,), eps=1e-05, elementwise_affine=True)
    (4): Linear(in_features=512, out_features=3, bias=True)
  )
  (dropout): Dropout(p=0, inplace=False)
)
ModelDNN_FlexibleLayers(
  (fc_layers): ModuleList(
    (0): Linear(in_features=1920, out_features=2048, bias=True)
    (1): LayerNorm((2048,), eps=1e-05, elementwise_affine=True)
    (2): Linear(in_features=2048, out_features=512, bias=True)
    (3): LayerNorm((512,), eps=1e-05, elementwise_affine=True)
    (4): Linear(in_features=512, out_features=3, bias=True)
  )
  (dropout): Dropout(p=0, inplace=False)
)
ModelDNN_FlexibleLayers(
  (fc_layers): ModuleList(
    (0): Linear(in_features=1920, out_features=2048, bias=True)
    (1): LayerNorm((2048,), eps=1e-05, elementwise_affine=True)
    (2): Linear(in_features=2048, out_features=512, bias=True)
    (3): LayerNorm((512,), eps=1e-05, elementwise_affine=True)
    (4): Linear(in_features=512, out_features=3, bias=True)
  )
  (dropout): Dropout(p=0, inplace=False)
)
ModelDNN_FlexibleLayers(
  (fc_layers): ModuleList(
    (0): Linear(in_features=1920, out_features=2048, bias=True)
    (1): LayerNorm((2048,), eps=1e-05, elementwise_affine=True)
    (2): Linear(in_features=2048, out_features=512, bias=True)
    (3): LayerNorm((512,), eps=1e-05, elementwise_affine=True)
    (4): Linear(in_features=512, out_features=3, bias=True)
  )
  (dropout): Dropout(p=0, inplace=False)
)
ModelDNN_FlexibleLayers(
  (fc_layers): ModuleList(
    (0): Linear(in_features=1920, out_features=2048, bias=True)
    (1): LayerNorm((2048,), eps=1e-05, elementwise_affine=True)
    (2): Linear(in_features=2048, out_features=512, bias=True)
    (3): LayerNorm((512,), eps=1e-05, elementwise_affine=True)
    (4): Linear(in_features=512, out_features=3, bias=True)
  )
  (dropout): Dropout(p=0, inplace=False)
)
ModelDNN_FlexibleLayers(
  (fc_layers): ModuleList(
    (0): Linear(in_features=1920, out_features=2048, bias=True)
    (1): LayerNorm((2048,), eps=1e-05, elementwise_affine=True)
    (2): Linear(in_features=2048, out_features=512, bias=True)
    (3): LayerNorm((512,), eps=1e-05, elementwise_affine=True)
    (4): Linear(in_features=512, out_features=3, bias=True)
  )
  (dropout): Dropout(p=0, inplace=False)
)
ModelDNN_FlexibleLayers(
  (fc_layers): ModuleList(
    (0): Linear(in_features=1920, out_features=2048, bias=True)
    (1): LayerNorm((2048,), eps=1e-05, elementwise_affine=True)
    (2): Linear(in_features=2048, out_features=512, bias=True)
    (3): LayerNorm((512,), eps=1e-05, elementwise_affine=True)
    (4): Linear(in_features=512, out_features=3, bias=True)
  )
  (dropout): Dropout(p=0, inplace=False)
)
ModelDNN_FlexibleLayers(
  (fc_layers): ModuleList(
    (0): Linear(in_features=1920, out_features=2048, bias=True)
    (1): LayerNorm((2048,), eps=1e-05, elementwise_affine=True)
    (2): Linear(in_features=2048, out_features=512, bias=True)
    (3): LayerNorm((512,), eps=1e-05, elementwise_affine=True)
    (4): Linear(in_features=512, out_features=3, bias=True)
  )
  (dropout): Dropout(p=0, inplace=False)
)
ModelDNN_FlexibleLayers(
  (fc_layers): ModuleList(
    (0): Linear(in_features=1920, out_features=2048, bias=True)
    (1): LayerNorm((2048,), eps=1e-05, elementwise_affine=True)
    (2): Linear(in_features=2048, out_features=512, bias=True)
    (3): LayerNorm((512,), eps=1e-05, elementwise_affine=True)
    (4): Linear(in_features=512, out_features=3, bias=True)
  )
  (dropout): Dropout(p=0, inplace=False)
)
ModelDNN_FlexibleLayers(
  (fc_layers): ModuleList(
    (0): Linear(in_features=1920, out_features=2048, bias=True)
    (1): LayerNorm((2048,), eps=1e-05, elementwise_affine=True)
    (2): Linear(in_features=2048, out_features=512, bias=True)
    (3): LayerNorm((512,), eps=1e-05, elementwise_affine=True)
    (4): Linear(in_features=512, out_features=3, bias=True)
  )
  (dropout): Dropout(p=0, inplace=False)
)
ModelDNN_FlexibleLayers(
  (fc_layers): ModuleList(
    (0): Linear(in_features=1920, out_features=2048, bias=True)
    (1): LayerNorm((2048,), eps=1e-05, elementwise_affine=True)
    (2): Linear(in_features=2048, out_features=512, bias=True)
    (3): LayerNorm((512,), eps=1e-05, elementwise_affine=True)
    (4): Linear(in_features=512, out_features=3, bias=True)
  )
  (dropout): Dropout(p=0, inplace=False)
)
ModelDNN_FlexibleLayers(
  (fc_layers): ModuleList(
    (0): Linear(in_features=1920, out_features=2048, bias=True)
    (1): LayerNorm((2048,), eps=1e-05, elementwise_affine=True)
    (2): Linear(in_features=2048, out_features=512, bias=True)
    (3): LayerNorm((512,), eps=1e-05, elementwise_affine=True)
    (4): Linear(in_features=512, out_features=3, bias=True)
  )
  (dropout): Dropout(p=0, inplace=False)
)
ModelDNN_FlexibleLayers(
  (fc_layers): ModuleList(
    (0): Linear(in_features=1920, out_features=2048, bias=True)
    (1): LayerNorm((2048,), eps=1e-05, elementwise_affine=True)
    (2): Linear(in_features=2048, out_features=512, bias=True)
    (3): LayerNorm((512,), eps=1e-05, elementwise_affine=True)
    (4): Linear(in_features=512, out_features=3, bias=True)
  )
  (dropout): Dropout(p=0, inplace=False)
)
ModelDNN_FlexibleLayers(
  (fc_layers): ModuleList(
    (0): Linear(in_features=1920, out_features=2048, bias=True)
    (1): LayerNorm((2048,), eps=1e-05, elementwise_affine=True)
    (2): Linear(in_features=2048, out_features=512, bias=True)
    (3): LayerNorm((512,), eps=1e-05, elementwise_affine=True)
    (4): Linear(in_features=512, out_features=3, bias=True)
  )
  (dropout): Dropout(p=0, inplace=False)
)
ModelDNN_FlexibleLayers(
  (fc_layers): ModuleList(
    (0): Linear(in_features=1920, out_features=2048, bias=True)
    (1): LayerNorm((2048,), eps=1e-05, elementwise_affine=True)
    (2): Linear(in_features=2048, out_features=512, bias=True)
    (3): LayerNorm((512,), eps=1e-05, elementwise_affine=True)
    (4): Linear(in_features=512, out_features=3, bias=True)
  )
  (dropout): Dropout(p=0, inplace=False)
)
ModelDNN_FlexibleLayers(
  (fc_layers): ModuleList(
    (0): Linear(in_features=1920, out_features=2048, bias=True)
    (1): LayerNorm((2048,), eps=1e-05, elementwise_affine=True)
    (2): Linear(in_features=2048, out_features=512, bias=True)
    (3): LayerNorm((512,), eps=1e-05, elementwise_affine=True)
    (4): Linear(in_features=512, out_features=3, bias=True)
  )
  (dropout): Dropout(p=0, inplace=False)
)
ModelDNN_FlexibleLayers(
  (fc_layers): ModuleList(
    (0): Linear(in_features=1920, out_features=2048, bias=True)
    (1): LayerNorm((2048,), eps=1e-05, elementwise_affine=True)
    (2): Linear(in_features=2048, out_features=512, bias=True)
    (3): LayerNorm((512,), eps=1e-05, elementwise_affine=True)
    (4): Linear(in_features=512, out_features=3, bias=True)
  )
  (dropout): Dropout(p=0, inplace=False)
)
ModelDNN_FlexibleLayers(
  (fc_layers): ModuleList(
    (0): Linear(in_features=1920, out_features=2048, bias=True)
    (1): LayerNorm((2048,), eps=1e-05, elementwise_affine=True)
    (2): Linear(in_features=2048, out_features=512, bias=True)
    (3): LayerNorm((512,), eps=1e-05, elementwise_affine=True)
    (4): Linear(in_features=512, out_features=3, bias=True)
  )
  (dropout): Dropout(p=0, inplace=False)
)
ModelDNN_FlexibleLayers(
  (fc_layers): ModuleList(
    (0): Linear(in_features=1920, out_features=2048, bias=True)
    (1): LayerNorm((2048,), eps=1e-05, elementwise_affine=True)
    (2): Linear(in_features=2048, out_features=512, bias=True)
    (3): LayerNorm((512,), eps=1e-05, elementwise_affine=True)
    (4): Linear(in_features=512, out_features=3, bias=True)
  )
  (dropout): Dropout(p=0, inplace=False)
)
ModelDNN_FlexibleLayers(
  (fc_layers): ModuleList(
    (0): Linear(in_features=1920, out_features=2048, bias=True)
    (1): LayerNorm((2048,), eps=1e-05, elementwise_affine=True)
    (2): Linear(in_features=2048, out_features=512, bias=True)
    (3): LayerNorm((512,), eps=1e-05, elementwise_affine=True)
    (4): Linear(in_features=512, out_features=3, bias=True)
  )
  (dropout): Dropout(p=0, inplace=False)
)
ModelDNN_FlexibleLayers(
  (fc_layers): ModuleList(
    (0): Linear(in_features=1920, out_features=2048, bias=True)
    (1): LayerNorm((2048,), eps=1e-05, elementwise_affine=True)
    (2): Linear(in_features=2048, out_features=512, bias=True)
    (3): LayerNorm((512,), eps=1e-05, elementwise_affine=True)
    (4): Linear(in_features=512, out_features=3, bias=True)
  )
  (dropout): Dropout(p=0, inplace=False)
)
ModelDNN_FlexibleLayers(
  (fc_layers): ModuleList(
    (0): Linear(in_features=1920, out_features=2048, bias=True)
    (1): LayerNorm((2048,), eps=1e-05, elementwise_affine=True)
    (2): Linear(in_features=2048, out_features=512, bias=True)
    (3): LayerNorm((512,), eps=1e-05, elementwise_affine=True)
    (4): Linear(in_features=512, out_features=3, bias=True)
  )
  (dropout): Dropout(p=0, inplace=False)
)
ModelDNN_FlexibleLayers(
  (fc_layers): ModuleList(
    (0): Linear(in_features=1920, out_features=2048, bias=True)
    (1): LayerNorm((2048,), eps=1e-05, elementwise_affine=True)
    (2): Linear(in_features=2048, out_features=512, bias=True)
    (3): LayerNorm((512,), eps=1e-05, elementwise_affine=True)
    (4): Linear(in_features=512, out_features=3, bias=True)
  )
  (dropout): Dropout(p=0, inplace=False)
)
ModelDNN_FlexibleLayers(
  (fc_layers): ModuleList(
    (0): Linear(in_features=1920, out_features=2048, bias=True)
    (1): LayerNorm((2048,), eps=1e-05, elementwise_affine=True)
    (2): Linear(in_features=2048, out_features=512, bias=True)
    (3): LayerNorm((512,), eps=1e-05, elementwise_affine=True)
    (4): Linear(in_features=512, out_features=3, bias=True)
  )
  (dropout): Dropout(p=0, inplace=False)
)
ModelDNN_FlexibleLayers(
  (fc_layers): ModuleList(
    (0): Linear(in_features=1920, out_features=2048, bias=True)
    (1): LayerNorm((2048,), eps=1e-05, elementwise_affine=True)
    (2): Linear(in_features=2048, out_features=512, bias=True)
    (3): LayerNorm((512,), eps=1e-05, elementwise_affine=True)
    (4): Linear(in_features=512, out_features=3, bias=True)
  )
  (dropout): Dropout(p=0, inplace=False)
)
ModelDNN_FlexibleLayers(
  (fc_layers): ModuleList(
    (0): Linear(in_features=1920, out_features=2048, bias=True)
    (1): LayerNorm((2048,), eps=1e-05, elementwise_affine=True)
    (2): Linear(in_features=2048, out_features=512, bias=True)
    (3): LayerNorm((512,), eps=1e-05, elementwise_affine=True)
    (4): Linear(in_features=512, out_features=3, bias=True)
  )
  (dropout): Dropout(p=0, inplace=False)
)
ModelDNN_FlexibleLayers(
  (fc_layers): ModuleList(
    (0): Linear(in_features=1920, out_features=2048, bias=True)
    (1): LayerNorm((2048,), eps=1e-05, elementwise_affine=True)
    (2): Linear(in_features=2048, out_features=512, bias=True)
    (3): LayerNorm((512,), eps=1e-05, elementwise_affine=True)
    (4): Linear(in_features=512, out_features=3, bias=True)
  )
  (dropout): Dropout(p=0, inplace=False)
)
ModelDNN_FlexibleLayers(
  (fc_layers): ModuleList(
    (0): Linear(in_features=1920, out_features=2048, bias=True)
    (1): LayerNorm((2048,), eps=1e-05, elementwise_affine=True)
    (2): Linear(in_features=2048, out_features=512, bias=True)
    (3): LayerNorm((512,), eps=1e-05, elementwise_affine=True)
    (4): Linear(in_features=512, out_features=3, bias=True)
  )
  (dropout): Dropout(p=0, inplace=False)
)
ModelDNN_FlexibleLayers(
  (fc_layers): ModuleList(
    (0): Linear(in_features=1920, out_features=2048, bias=True)
    (1): LayerNorm((2048,), eps=1e-05, elementwise_affine=True)
    (2): Linear(in_features=2048, out_features=512, bias=True)
    (3): LayerNorm((512,), eps=1e-05, elementwise_affine=True)
    (4): Linear(in_features=512, out_features=3, bias=True)
  )
  (dropout): Dropout(p=0, inplace=False)
)
ModelDNN_FlexibleLayers(
  (fc_layers): ModuleList(
    (0): Linear(in_features=1920, out_features=2048, bias=True)
    (1): LayerNorm((2048,), eps=1e-05, elementwise_affine=True)
    (2): Linear(in_features=2048, out_features=512, bias=True)
    (3): LayerNorm((512,), eps=1e-05, elementwise_affine=True)
    (4): Linear(in_features=512, out_features=3, bias=True)
  )
  (dropout): Dropout(p=0, inplace=False)
)
ModelDNN_FlexibleLayers(
  (fc_layers): ModuleList(
    (0): Linear(in_features=1920, out_features=2048, bias=True)
    (1): LayerNorm((2048,), eps=1e-05, elementwise_affine=True)
    (2): Linear(in_features=2048, out_features=512, bias=True)
    (3): LayerNorm((512,), eps=1e-05, elementwise_affine=True)
    (4): Linear(in_features=512, out_features=3, bias=True)
  )
  (dropout): Dropout(p=0, inplace=False)
)
ModelDNN_FlexibleLayers(
  (fc_layers): ModuleList(
    (0): Linear(in_features=1920, out_features=2048, bias=True)
    (1): LayerNorm((2048,), eps=1e-05, elementwise_affine=True)
    (2): Linear(in_features=2048, out_features=512, bias=True)
    (3): LayerNorm((512,), eps=1e-05, elementwise_affine=True)
    (4): Linear(in_features=512, out_features=3, bias=True)
  )
  (dropout): Dropout(p=0, inplace=False)
)
ModelDNN_FlexibleLayers(
  (fc_layers): ModuleList(
    (0): Linear(in_features=1920, out_features=2048, bias=True)
    (1): LayerNorm((2048,), eps=1e-05, elementwise_affine=True)
    (2): Linear(in_features=2048, out_features=512, bias=True)
    (3): LayerNorm((512,), eps=1e-05, elementwise_affine=True)
    (4): Linear(in_features=512, out_features=3, bias=True)
  )
  (dropout): Dropout(p=0, inplace=False)
)
ModelDNN_FlexibleLayers(
  (fc_layers): ModuleList(
    (0): Linear(in_features=1920, out_features=2048, bias=True)
    (1): LayerNorm((2048,), eps=1e-05, elementwise_affine=True)
    (2): Linear(in_features=2048, out_features=512, bias=True)
    (3): LayerNorm((512,), eps=1e-05, elementwise_affine=True)
    (4): Linear(in_features=512, out_features=3, bias=True)
  )
  (dropout): Dropout(p=0, inplace=False)
)
ModelDNN_FlexibleLayers(
  (fc_layers): ModuleList(
    (0): Linear(in_features=1920, out_features=2048, bias=True)
    (1): LayerNorm((2048,), eps=1e-05, elementwise_affine=True)
    (2): Linear(in_features=2048, out_features=512, bias=True)
    (3): LayerNorm((512,), eps=1e-05, elementwise_affine=True)
    (4): Linear(in_features=512, out_features=3, bias=True)
  )
  (dropout): Dropout(p=0, inplace=False)
)
ModelDNN_FlexibleLayers(
  (fc_layers): ModuleList(
    (0): Linear(in_features=1920, out_features=2048, bias=True)
    (1): LayerNorm((2048,), eps=1e-05, elementwise_affine=True)
    (2): Linear(in_features=2048, out_features=512, bias=True)
    (3): LayerNorm((512,), eps=1e-05, elementwise_affine=True)
    (4): Linear(in_features=512, out_features=3, bias=True)
  )
  (dropout): Dropout(p=0, inplace=False)
)
ModelDNN_FlexibleLayers(
  (fc_layers): ModuleList(
    (0): Linear(in_features=1920, out_features=2048, bias=True)
    (1): LayerNorm((2048,), eps=1e-05, elementwise_affine=True)
    (2): Linear(in_features=2048, out_features=512, bias=True)
    (3): LayerNorm((512,), eps=1e-05, elementwise_affine=True)
    (4): Linear(in_features=512, out_features=3, bias=True)
  )
  (dropout): Dropout(p=0, inplace=False)
)
ModelCNN_LSTM(
  (conv1): Conv1d(30, 30, kernel_size=(3,), stride=(1,), padding=(1,), groups=30)
  (conv2): Conv1d(30, 30, kernel_size=(3,), stride=(1,), padding=(1,), groups=30)
  (convs): Sequential(
    (0): Conv1d(30, 30, kernel_size=(3,), stride=(1,), padding=(1,), groups=30)
    (1): LayerNorm((30, 64), eps=1e-05, elementwise_affine=True)
    (2): ReLU()
    (3): MaxPool1d(kernel_size=2, stride=2, padding=0, dilation=1, ceil_mode=False)
    (4): Conv1d(30, 30, kernel_size=(3,), stride=(1,), padding=(1,), groups=30)
    (5): LayerNorm((30, 32), eps=1e-05, elementwise_affine=True)
    (6): ReLU()
    (7): MaxPool1d(kernel_size=2, stride=2, padding=0, dilation=1, ceil_mode=False)
  )
  (lstm): LSTM(30, 30, batch_first=True)
  (fc_layers): ModuleList(
    (0): Linear(in_features=480, out_features=256, bias=True)
    (1): LayerNorm((256,), eps=1e-05, elementwise_affine=True)
    (2): Linear(in_features=256, out_features=64, bias=True)
    (3): LayerNorm((64,), eps=1e-05, elementwise_affine=True)
    (4): Linear(in_features=64, out_features=3, bias=True)
    (5): LayerNorm((3,), eps=1e-05, elementwise_affine=True)
    (6): Linear(in_features=3, out_features=3, bias=True)
  )
  (dropout): Dropout(p=0, inplace=False)
)
ModelCNN_LSTM(
  (conv1): Conv1d(30, 30, kernel_size=(3,), stride=(1,), padding=(1,), groups=30)
  (conv2): Conv1d(30, 30, kernel_size=(3,), stride=(1,), padding=(1,), groups=30)
  (convs): Sequential(
    (0): Conv1d(30, 30, kernel_size=(3,), stride=(1,), padding=(1,), groups=30)
    (1): LayerNorm((30, 64), eps=1e-05, elementwise_affine=True)
    (2): ReLU()
    (3): MaxPool1d(kernel_size=2, stride=2, padding=0, dilation=1, ceil_mode=False)
    (4): Conv1d(30, 30, kernel_size=(3,), stride=(1,), padding=(1,), groups=30)
    (5): LayerNorm((30, 32), eps=1e-05, elementwise_affine=True)
    (6): ReLU()
    (7): MaxPool1d(kernel_size=2, stride=2, padding=0, dilation=1, ceil_mode=False)
  )
  (lstm): LSTM(30, 30, batch_first=True)
  (fc_layers): ModuleList(
    (0): Linear(in_features=480, out_features=256, bias=True)
    (1): LayerNorm((256,), eps=1e-05, elementwise_affine=True)
    (2): Linear(in_features=256, out_features=64, bias=True)
    (3): LayerNorm((64,), eps=1e-05, elementwise_affine=True)
    (4): Linear(in_features=64, out_features=3, bias=True)
    (5): LayerNorm((3,), eps=1e-05, elementwise_affine=True)
    (6): Linear(in_features=3, out_features=3, bias=True)
  )
  (dropout): Dropout(p=0, inplace=False)
)
ModelCNN_LSTM(
  (conv1): Conv1d(30, 30, kernel_size=(3,), stride=(1,), padding=(1,), groups=30)
  (conv2): Conv1d(30, 30, kernel_size=(3,), stride=(1,), padding=(1,), groups=30)
  (convs): Sequential(
    (0): Conv1d(30, 30, kernel_size=(3,), stride=(1,), padding=(1,), groups=30)
    (1): LayerNorm((30, 64), eps=1e-05, elementwise_affine=True)
    (2): ReLU()
    (3): MaxPool1d(kernel_size=2, stride=2, padding=0, dilation=1, ceil_mode=False)
    (4): Conv1d(30, 30, kernel_size=(3,), stride=(1,), padding=(1,), groups=30)
    (5): LayerNorm((30, 32), eps=1e-05, elementwise_affine=True)
    (6): ReLU()
    (7): MaxPool1d(kernel_size=2, stride=2, padding=0, dilation=1, ceil_mode=False)
  )
  (lstm): LSTM(30, 30, batch_first=True)
  (fc_layers): ModuleList(
    (0): Linear(in_features=480, out_features=256, bias=True)
    (1): LayerNorm((256,), eps=1e-05, elementwise_affine=True)
    (2): Linear(in_features=256, out_features=64, bias=True)
    (3): LayerNorm((64,), eps=1e-05, elementwise_affine=True)
    (4): Linear(in_features=64, out_features=3, bias=True)
    (5): LayerNorm((3,), eps=1e-05, elementwise_affine=True)
    (6): Linear(in_features=3, out_features=3, bias=True)
  )
  (dropout): Dropout(p=0, inplace=False)
)
ModelCNN_LSTM(
  (conv1): Conv1d(30, 30, kernel_size=(3,), stride=(1,), padding=(1,), groups=30)
  (conv2): Conv1d(30, 30, kernel_size=(3,), stride=(1,), padding=(1,), groups=30)
  (convs): Sequential(
    (0): Conv1d(30, 30, kernel_size=(3,), stride=(1,), padding=(1,), groups=30)
    (1): LayerNorm((30, 64), eps=1e-05, elementwise_affine=True)
    (2): ReLU()
    (3): MaxPool1d(kernel_size=2, stride=2, padding=0, dilation=1, ceil_mode=False)
    (4): Conv1d(30, 30, kernel_size=(3,), stride=(1,), padding=(1,), groups=30)
    (5): LayerNorm((30, 32), eps=1e-05, elementwise_affine=True)
    (6): ReLU()
    (7): MaxPool1d(kernel_size=2, stride=2, padding=0, dilation=1, ceil_mode=False)
  )
  (lstm): LSTM(30, 30, batch_first=True)
  (fc_layers): ModuleList(
    (0): Linear(in_features=480, out_features=256, bias=True)
    (1): LayerNorm((256,), eps=1e-05, elementwise_affine=True)
    (2): Linear(in_features=256, out_features=64, bias=True)
    (3): LayerNorm((64,), eps=1e-05, elementwise_affine=True)
    (4): Linear(in_features=64, out_features=3, bias=True)
    (5): LayerNorm((3,), eps=1e-05, elementwise_affine=True)
    (6): Linear(in_features=3, out_features=3, bias=True)
  )
  (dropout): Dropout(p=0, inplace=False)
)
ModelCNN_LSTM(
  (conv1): Conv1d(30, 30, kernel_size=(3,), stride=(1,), padding=(1,), groups=30)
  (conv2): Conv1d(30, 30, kernel_size=(3,), stride=(1,), padding=(1,), groups=30)
  (convs): Sequential(
    (0): Conv1d(30, 30, kernel_size=(3,), stride=(1,), padding=(1,), groups=30)
    (1): LayerNorm((30, 64), eps=1e-05, elementwise_affine=True)
    (2): ReLU()
    (3): MaxPool1d(kernel_size=2, stride=2, padding=0, dilation=1, ceil_mode=False)
    (4): Conv1d(30, 30, kernel_size=(3,), stride=(1,), padding=(1,), groups=30)
    (5): LayerNorm((30, 32), eps=1e-05, elementwise_affine=True)
    (6): ReLU()
    (7): MaxPool1d(kernel_size=2, stride=2, padding=0, dilation=1, ceil_mode=False)
  )
  (lstm): LSTM(30, 30, batch_first=True)
  (fc_layers): ModuleList(
    (0): Linear(in_features=480, out_features=256, bias=True)
    (1): LayerNorm((256,), eps=1e-05, elementwise_affine=True)
    (2): Linear(in_features=256, out_features=64, bias=True)
    (3): LayerNorm((64,), eps=1e-05, elementwise_affine=True)
    (4): Linear(in_features=64, out_features=3, bias=True)
    (5): LayerNorm((3,), eps=1e-05, elementwise_affine=True)
    (6): Linear(in_features=3, out_features=3, bias=True)
  )
  (dropout): Dropout(p=0, inplace=False)
)
ModelCNN_LSTM(
  (conv1): Conv1d(30, 30, kernel_size=(3,), stride=(1,), padding=(1,), groups=30)
  (conv2): Conv1d(30, 30, kernel_size=(3,), stride=(1,), padding=(1,), groups=30)
  (convs): Sequential(
    (0): Conv1d(30, 30, kernel_size=(3,), stride=(1,), padding=(1,), groups=30)
    (1): LayerNorm((30, 64), eps=1e-05, elementwise_affine=True)
    (2): ReLU()
    (3): MaxPool1d(kernel_size=2, stride=2, padding=0, dilation=1, ceil_mode=False)
    (4): Conv1d(30, 30, kernel_size=(3,), stride=(1,), padding=(1,), groups=30)
    (5): LayerNorm((30, 32), eps=1e-05, elementwise_affine=True)
    (6): ReLU()
    (7): MaxPool1d(kernel_size=2, stride=2, padding=0, dilation=1, ceil_mode=False)
  )
  (lstm): LSTM(30, 30, batch_first=True)
  (fc_layers): ModuleList(
    (0): Linear(in_features=480, out_features=256, bias=True)
    (1): LayerNorm((256,), eps=1e-05, elementwise_affine=True)
    (2): Linear(in_features=256, out_features=64, bias=True)
    (3): LayerNorm((64,), eps=1e-05, elementwise_affine=True)
    (4): Linear(in_features=64, out_features=3, bias=True)
    (5): LayerNorm((3,), eps=1e-05, elementwise_affine=True)
    (6): Linear(in_features=3, out_features=3, bias=True)
  )
  (dropout): Dropout(p=0, inplace=False)
)
ModelCNN_LSTM(
  (conv1): Conv1d(30, 30, kernel_size=(3,), stride=(1,), padding=(1,), groups=30)
  (conv2): Conv1d(30, 30, kernel_size=(3,), stride=(1,), padding=(1,), groups=30)
  (convs): Sequential(
    (0): Conv1d(30, 30, kernel_size=(3,), stride=(1,), padding=(1,), groups=30)
    (1): LayerNorm((30, 64), eps=1e-05, elementwise_affine=True)
    (2): ReLU()
    (3): MaxPool1d(kernel_size=2, stride=2, padding=0, dilation=1, ceil_mode=False)
    (4): Conv1d(30, 30, kernel_size=(3,), stride=(1,), padding=(1,), groups=30)
    (5): LayerNorm((30, 32), eps=1e-05, elementwise_affine=True)
    (6): ReLU()
    (7): MaxPool1d(kernel_size=2, stride=2, padding=0, dilation=1, ceil_mode=False)
  )
  (lstm): LSTM(30, 30, batch_first=True)
  (fc_layers): ModuleList(
    (0): Linear(in_features=480, out_features=256, bias=True)
    (1): LayerNorm((256,), eps=1e-05, elementwise_affine=True)
    (2): Linear(in_features=256, out_features=64, bias=True)
    (3): LayerNorm((64,), eps=1e-05, elementwise_affine=True)
    (4): Linear(in_features=64, out_features=3, bias=True)
    (5): LayerNorm((3,), eps=1e-05, elementwise_affine=True)
    (6): Linear(in_features=3, out_features=3, bias=True)
  )
  (dropout): Dropout(p=0, inplace=False)
)
ModelCNN_LSTM(
  (conv1): Conv1d(30, 30, kernel_size=(3,), stride=(1,), padding=(1,), groups=30)
  (conv2): Conv1d(30, 30, kernel_size=(3,), stride=(1,), padding=(1,), groups=30)
  (convs): Sequential(
    (0): Conv1d(30, 30, kernel_size=(3,), stride=(1,), padding=(1,), groups=30)
    (1): LayerNorm((30, 64), eps=1e-05, elementwise_affine=True)
    (2): ReLU()
    (3): MaxPool1d(kernel_size=2, stride=2, padding=0, dilation=1, ceil_mode=False)
    (4): Conv1d(30, 30, kernel_size=(3,), stride=(1,), padding=(1,), groups=30)
    (5): LayerNorm((30, 32), eps=1e-05, elementwise_affine=True)
    (6): ReLU()
    (7): MaxPool1d(kernel_size=2, stride=2, padding=0, dilation=1, ceil_mode=False)
  )
  (lstm): LSTM(30, 30, batch_first=True)
  (fc_layers): ModuleList(
    (0): Linear(in_features=480, out_features=256, bias=True)
    (1): LayerNorm((256,), eps=1e-05, elementwise_affine=True)
    (2): Linear(in_features=256, out_features=64, bias=True)
    (3): LayerNorm((64,), eps=1e-05, elementwise_affine=True)
    (4): Linear(in_features=64, out_features=3, bias=True)
    (5): LayerNorm((3,), eps=1e-05, elementwise_affine=True)
    (6): Linear(in_features=3, out_features=3, bias=True)
  )
  (dropout): Dropout(p=0, inplace=False)
)
ModelCNN_LSTM(
  (conv1): Conv1d(30, 30, kernel_size=(3,), stride=(1,), padding=(1,), groups=30)
  (conv2): Conv1d(30, 30, kernel_size=(3,), stride=(1,), padding=(1,), groups=30)
  (convs): Sequential(
    (0): Conv1d(30, 30, kernel_size=(3,), stride=(1,), padding=(1,), groups=30)
    (1): LayerNorm((30, 64), eps=1e-05, elementwise_affine=True)
    (2): ReLU()
    (3): MaxPool1d(kernel_size=2, stride=2, padding=0, dilation=1, ceil_mode=False)
    (4): Conv1d(30, 30, kernel_size=(3,), stride=(1,), padding=(1,), groups=30)
    (5): LayerNorm((30, 32), eps=1e-05, elementwise_affine=True)
    (6): ReLU()
    (7): MaxPool1d(kernel_size=2, stride=2, padding=0, dilation=1, ceil_mode=False)
  )
  (lstm): LSTM(30, 30, batch_first=True)
  (fc_layers): ModuleList(
    (0): Linear(in_features=30, out_features=256, bias=True)
    (1): LayerNorm((256,), eps=1e-05, elementwise_affine=True)
    (2): Linear(in_features=256, out_features=64, bias=True)
    (3): LayerNorm((64,), eps=1e-05, elementwise_affine=True)
    (4): Linear(in_features=64, out_features=3, bias=True)
    (5): LayerNorm((3,), eps=1e-05, elementwise_affine=True)
    (6): Linear(in_features=3, out_features=3, bias=True)
  )
  (dropout): Dropout(p=0, inplace=False)
)
ModelRNN(
  (rnn): RNN(30, 30, batch_first=True)
  (fc_layers): ModuleList(
    (0): Linear(in_features=30, out_features=16, bias=True)
    (1): LayerNorm((16,), eps=1e-05, elementwise_affine=True)
    (2): Linear(in_features=16, out_features=3, bias=True)
    (3): LayerNorm((3,), eps=1e-05, elementwise_affine=True)
    (4): Linear(in_features=3, out_features=3, bias=True)
  )
  (dropout): Dropout(p=0, inplace=False)
)
ModelCNN_LSTM(
  (conv1): Conv1d(30, 30, kernel_size=(3,), stride=(1,), padding=(1,), groups=30)
  (conv2): Conv1d(30, 30, kernel_size=(3,), stride=(1,), padding=(1,), groups=30)
  (convs): Sequential(
    (0): Conv1d(30, 30, kernel_size=(3,), stride=(1,), padding=(1,), groups=30)
    (1): LayerNorm((30, 64), eps=1e-05, elementwise_affine=True)
    (2): ReLU()
    (3): MaxPool1d(kernel_size=2, stride=2, padding=0, dilation=1, ceil_mode=False)
    (4): Conv1d(30, 30, kernel_size=(3,), stride=(1,), padding=(1,), groups=30)
    (5): LayerNorm((30, 32), eps=1e-05, elementwise_affine=True)
    (6): ReLU()
    (7): MaxPool1d(kernel_size=2, stride=2, padding=0, dilation=1, ceil_mode=False)
  )
  (lstm): LSTM(30, 30, batch_first=True)
  (fc_layers): ModuleList(
    (0): Linear(in_features=30, out_features=16, bias=True)
    (1): LayerNorm((16,), eps=1e-05, elementwise_affine=True)
    (2): Linear(in_features=16, out_features=3, bias=True)
    (3): LayerNorm((3,), eps=1e-05, elementwise_affine=True)
    (4): Linear(in_features=3, out_features=3, bias=True)
  )
  (dropout): Dropout(p=0, inplace=False)
)
ModelRNN(
  (rnn): RNN(30, 30, batch_first=True)
  (fc_layers): ModuleList(
    (0): Linear(in_features=30, out_features=16, bias=True)
    (1): LayerNorm((16,), eps=1e-05, elementwise_affine=True)
    (2): Linear(in_features=16, out_features=3, bias=True)
    (3): LayerNorm((3,), eps=1e-05, elementwise_affine=True)
    (4): Linear(in_features=3, out_features=3, bias=True)
  )
  (dropout): Dropout(p=0, inplace=False)
)
ModelCNN_LSTM(
  (conv1): Conv1d(30, 30, kernel_size=(3,), stride=(1,), padding=(1,), groups=30)
  (conv2): Conv1d(30, 30, kernel_size=(3,), stride=(1,), padding=(1,), groups=30)
  (convs): Sequential(
    (0): Conv1d(30, 30, kernel_size=(3,), stride=(1,), padding=(1,), groups=30)
    (1): LayerNorm((30, 64), eps=1e-05, elementwise_affine=True)
    (2): ReLU()
    (3): MaxPool1d(kernel_size=2, stride=2, padding=0, dilation=1, ceil_mode=False)
    (4): Conv1d(30, 30, kernel_size=(3,), stride=(1,), padding=(1,), groups=30)
    (5): LayerNorm((30, 32), eps=1e-05, elementwise_affine=True)
    (6): ReLU()
    (7): MaxPool1d(kernel_size=2, stride=2, padding=0, dilation=1, ceil_mode=False)
  )
  (lstm): LSTM(30, 30, batch_first=True)
  (fc_layers): ModuleList(
    (0): Linear(in_features=30, out_features=16, bias=True)
    (1): LayerNorm((16,), eps=1e-05, elementwise_affine=True)
    (2): Linear(in_features=16, out_features=3, bias=True)
    (3): LayerNorm((3,), eps=1e-05, elementwise_affine=True)
    (4): Linear(in_features=3, out_features=3, bias=True)
  )
  (dropout): Dropout(p=0, inplace=False)
)
ModelLSTM(
  (lstm): LSTM(30, 30, batch_first=True)
  (fc_layers): ModuleList(
    (0): Linear(in_features=30, out_features=16, bias=True)
    (1): LayerNorm((16,), eps=1e-05, elementwise_affine=True)
    (2): Linear(in_features=16, out_features=3, bias=True)
    (3): LayerNorm((3,), eps=1e-05, elementwise_affine=True)
    (4): Linear(in_features=3, out_features=3, bias=True)
  )
  (dropout): Dropout(p=0, inplace=False)
)
ModelRNN(
  (rnn): RNN(30, 30, batch_first=True)
  (fc_layers): ModuleList(
    (0): Linear(in_features=30, out_features=16, bias=True)
    (1): LayerNorm((16,), eps=1e-05, elementwise_affine=True)
    (2): Linear(in_features=16, out_features=3, bias=True)
    (3): LayerNorm((3,), eps=1e-05, elementwise_affine=True)
    (4): Linear(in_features=3, out_features=3, bias=True)
  )
  (dropout): Dropout(p=0, inplace=False)
)
ModelLSTM(
  (lstm): LSTM(30, 30, batch_first=True)
  (fc_layers): ModuleList(
    (0): Linear(in_features=30, out_features=16, bias=True)
    (1): LayerNorm((16,), eps=1e-05, elementwise_affine=True)
    (2): Linear(in_features=16, out_features=3, bias=True)
    (3): LayerNorm((3,), eps=1e-05, elementwise_affine=True)
    (4): Linear(in_features=3, out_features=3, bias=True)
  )
  (dropout): Dropout(p=0, inplace=False)
)
ModelRNN(
  (rnn): RNN(30, 30, batch_first=True)
  (fc_layers): ModuleList(
    (0): Linear(in_features=30, out_features=16, bias=True)
    (1): LayerNorm((16,), eps=1e-05, elementwise_affine=True)
    (2): Linear(in_features=16, out_features=3, bias=True)
    (3): LayerNorm((3,), eps=1e-05, elementwise_affine=True)
    (4): Linear(in_features=3, out_features=3, bias=True)
  )
  (dropout): Dropout(p=0, inplace=False)
)
ModelLSTM(
  (lstm): LSTM(30, 30, batch_first=True)
  (fc_layers): ModuleList(
    (0): Linear(in_features=30, out_features=16, bias=True)
    (1): LayerNorm((16,), eps=1e-05, elementwise_affine=True)
    (2): Linear(in_features=16, out_features=3, bias=True)
    (3): LayerNorm((3,), eps=1e-05, elementwise_affine=True)
    (4): Linear(in_features=3, out_features=3, bias=True)
  )
  (dropout): Dropout(p=0, inplace=False)
)
ModelRNN(
  (rnn): RNN(30, 30, batch_first=True)
  (fc_layers): ModuleList(
    (0): Linear(in_features=30, out_features=16, bias=True)
    (1): LayerNorm((16,), eps=1e-05, elementwise_affine=True)
    (2): Linear(in_features=16, out_features=3, bias=True)
    (3): LayerNorm((3,), eps=1e-05, elementwise_affine=True)
    (4): Linear(in_features=3, out_features=3, bias=True)
  )
  (dropout): Dropout(p=0, inplace=False)
)
ModelLSTM(
  (lstm): LSTM(30, 30, batch_first=True)
  (fc_layers): ModuleList(
    (0): Linear(in_features=30, out_features=16, bias=True)
    (1): LayerNorm((16,), eps=1e-05, elementwise_affine=True)
    (2): Linear(in_features=16, out_features=3, bias=True)
    (3): LayerNorm((3,), eps=1e-05, elementwise_affine=True)
    (4): Linear(in_features=3, out_features=3, bias=True)
  )
  (dropout): Dropout(p=0, inplace=False)
)
